node {
  name: "L_u/0/w/Initializer/random_uniform/shape"
  op: "Const"
  attr {
    key: "_class"
    value {
      list {
        s: "loc:@L_u/0/w"
      }
    }
  }
  attr {
    key: "_output_shapes"
    value {
      list {
        shape {
          dim {
            size: 2
          }
        }
      }
    }
  }
  attr {
    key: "dtype"
    value {
      type: DT_INT32
    }
  }
  attr {
    key: "value"
    value {
      tensor {
        dtype: DT_INT32
        tensor_shape {
          dim {
            size: 2
          }
        }
        tensor_content: "\360\000\000\000P\000\000\000"
      }
    }
  }
}
node {
  name: "L_u/0/w/Initializer/random_uniform/min"
  op: "Const"
  attr {
    key: "_class"
    value {
      list {
        s: "loc:@L_u/0/w"
      }
    }
  }
  attr {
    key: "_output_shapes"
    value {
      list {
        shape {
        }
      }
    }
  }
  attr {
    key: "dtype"
    value {
      type: DT_FLOAT
    }
  }
  attr {
    key: "value"
    value {
      tensor {
        dtype: DT_FLOAT
        tensor_shape {
        }
        float_val: -0.1369306445121765
      }
    }
  }
}
node {
  name: "L_u/0/w/Initializer/random_uniform/max"
  op: "Const"
  attr {
    key: "_class"
    value {
      list {
        s: "loc:@L_u/0/w"
      }
    }
  }
  attr {
    key: "_output_shapes"
    value {
      list {
        shape {
        }
      }
    }
  }
  attr {
    key: "dtype"
    value {
      type: DT_FLOAT
    }
  }
  attr {
    key: "value"
    value {
      tensor {
        dtype: DT_FLOAT
        tensor_shape {
        }
        float_val: 0.1369306445121765
      }
    }
  }
}
node {
  name: "L_u/0/w/Initializer/random_uniform/RandomUniform"
  op: "RandomUniform"
  input: "L_u/0/w/Initializer/random_uniform/shape"
  attr {
    key: "T"
    value {
      type: DT_INT32
    }
  }
  attr {
    key: "_class"
    value {
      list {
        s: "loc:@L_u/0/w"
      }
    }
  }
  attr {
    key: "_output_shapes"
    value {
      list {
        shape {
          dim {
            size: 240
          }
          dim {
            size: 80
          }
        }
      }
    }
  }
  attr {
    key: "dtype"
    value {
      type: DT_FLOAT
    }
  }
  attr {
    key: "seed"
    value {
      i: 0
    }
  }
  attr {
    key: "seed2"
    value {
      i: 0
    }
  }
}
node {
  name: "L_u/0/w/Initializer/random_uniform/sub"
  op: "Sub"
  input: "L_u/0/w/Initializer/random_uniform/max"
  input: "L_u/0/w/Initializer/random_uniform/min"
  attr {
    key: "T"
    value {
      type: DT_FLOAT
    }
  }
  attr {
    key: "_class"
    value {
      list {
        s: "loc:@L_u/0/w"
      }
    }
  }
  attr {
    key: "_output_shapes"
    value {
      list {
        shape {
        }
      }
    }
  }
}
node {
  name: "L_u/0/w/Initializer/random_uniform/mul"
  op: "Mul"
  input: "L_u/0/w/Initializer/random_uniform/RandomUniform"
  input: "L_u/0/w/Initializer/random_uniform/sub"
  attr {
    key: "T"
    value {
      type: DT_FLOAT
    }
  }
  attr {
    key: "_class"
    value {
      list {
        s: "loc:@L_u/0/w"
      }
    }
  }
  attr {
    key: "_output_shapes"
    value {
      list {
        shape {
          dim {
            size: 240
          }
          dim {
            size: 80
          }
        }
      }
    }
  }
}
node {
  name: "L_u/0/w/Initializer/random_uniform"
  op: "Add"
  input: "L_u/0/w/Initializer/random_uniform/mul"
  input: "L_u/0/w/Initializer/random_uniform/min"
  attr {
    key: "T"
    value {
      type: DT_FLOAT
    }
  }
  attr {
    key: "_class"
    value {
      list {
        s: "loc:@L_u/0/w"
      }
    }
  }
  attr {
    key: "_output_shapes"
    value {
      list {
        shape {
          dim {
            size: 240
          }
          dim {
            size: 80
          }
        }
      }
    }
  }
}
node {
  name: "L_u/0/w"
  op: "VariableV2"
  device: "/job:ps/task:0"
  attr {
    key: "_class"
    value {
      list {
        s: "loc:@L_u/0/w"
      }
    }
  }
  attr {
    key: "_output_shapes"
    value {
      list {
        shape {
          dim {
            size: 240
          }
          dim {
            size: 80
          }
        }
      }
    }
  }
  attr {
    key: "container"
    value {
      s: ""
    }
  }
  attr {
    key: "dtype"
    value {
      type: DT_FLOAT
    }
  }
  attr {
    key: "shape"
    value {
      shape {
        dim {
          size: 240
        }
        dim {
          size: 80
        }
      }
    }
  }
  attr {
    key: "shared_name"
    value {
      s: ""
    }
  }
}
node {
  name: "L_u/0/w/Assign"
  op: "Assign"
  input: "L_u/0/w"
  input: "L_u/0/w/Initializer/random_uniform"
  device: "/job:ps/task:0"
  attr {
    key: "T"
    value {
      type: DT_FLOAT
    }
  }
  attr {
    key: "_class"
    value {
      list {
        s: "loc:@L_u/0/w"
      }
    }
  }
  attr {
    key: "_output_shapes"
    value {
      list {
        shape {
          dim {
            size: 240
          }
          dim {
            size: 80
          }
        }
      }
    }
  }
  attr {
    key: "use_locking"
    value {
      b: true
    }
  }
  attr {
    key: "validate_shape"
    value {
      b: true
    }
  }
}
node {
  name: "L_u/0/w/read"
  op: "Identity"
  input: "L_u/0/w"
  device: "/job:ps/task:0"
  attr {
    key: "T"
    value {
      type: DT_FLOAT
    }
  }
  attr {
    key: "_class"
    value {
      list {
        s: "loc:@L_u/0/w"
      }
    }
  }
  attr {
    key: "_output_shapes"
    value {
      list {
        shape {
          dim {
            size: 240
          }
          dim {
            size: 80
          }
        }
      }
    }
  }
}
node {
  name: "L_u/0/g/Initializer/ones"
  op: "Const"
  attr {
    key: "_class"
    value {
      list {
        s: "loc:@L_u/0/g"
      }
    }
  }
  attr {
    key: "_output_shapes"
    value {
      list {
        shape {
          dim {
            size: 1
          }
          dim {
            size: 80
          }
        }
      }
    }
  }
  attr {
    key: "dtype"
    value {
      type: DT_FLOAT
    }
  }
  attr {
    key: "value"
    value {
      tensor {
        dtype: DT_FLOAT
        tensor_shape {
          dim {
            size: 1
          }
          dim {
            size: 80
          }
        }
        float_val: 1.0
      }
    }
  }
}
node {
  name: "L_u/0/g"
  op: "VariableV2"
  device: "/job:ps/task:0"
  attr {
    key: "_class"
    value {
      list {
        s: "loc:@L_u/0/g"
      }
    }
  }
  attr {
    key: "_output_shapes"
    value {
      list {
        shape {
          dim {
            size: 1
          }
          dim {
            size: 80
          }
        }
      }
    }
  }
  attr {
    key: "container"
    value {
      s: ""
    }
  }
  attr {
    key: "dtype"
    value {
      type: DT_FLOAT
    }
  }
  attr {
    key: "shape"
    value {
      shape {
        dim {
          size: 1
        }
        dim {
          size: 80
        }
      }
    }
  }
  attr {
    key: "shared_name"
    value {
      s: ""
    }
  }
}
node {
  name: "L_u/0/g/Assign"
  op: "Assign"
  input: "L_u/0/g"
  input: "L_u/0/g/Initializer/ones"
  device: "/job:ps/task:0"
  attr {
    key: "T"
    value {
      type: DT_FLOAT
    }
  }
  attr {
    key: "_class"
    value {
      list {
        s: "loc:@L_u/0/g"
      }
    }
  }
  attr {
    key: "_output_shapes"
    value {
      list {
        shape {
          dim {
            size: 1
          }
          dim {
            size: 80
          }
        }
      }
    }
  }
  attr {
    key: "use_locking"
    value {
      b: true
    }
  }
  attr {
    key: "validate_shape"
    value {
      b: true
    }
  }
}
node {
  name: "L_u/0/g/read"
  op: "Identity"
  input: "L_u/0/g"
  device: "/job:ps/task:0"
  attr {
    key: "T"
    value {
      type: DT_FLOAT
    }
  }
  attr {
    key: "_class"
    value {
      list {
        s: "loc:@L_u/0/g"
      }
    }
  }
  attr {
    key: "_output_shapes"
    value {
      list {
        shape {
          dim {
            size: 1
          }
          dim {
            size: 80
          }
        }
      }
    }
  }
}
node {
  name: "L_u/0/l2_normalize/Square"
  op: "Square"
  input: "L_u/0/w/read"
  device: "/job:ps/task:0"
  attr {
    key: "T"
    value {
      type: DT_FLOAT
    }
  }
  attr {
    key: "_output_shapes"
    value {
      list {
        shape {
          dim {
            size: 240
          }
          dim {
            size: 80
          }
        }
      }
    }
  }
}
node {
  name: "L_u/0/l2_normalize/Sum/reduction_indices"
  op: "Const"
  device: "/job:ps/task:0"
  attr {
    key: "_output_shapes"
    value {
      list {
        shape {
        }
      }
    }
  }
  attr {
    key: "dtype"
    value {
      type: DT_INT32
    }
  }
  attr {
    key: "value"
    value {
      tensor {
        dtype: DT_INT32
        tensor_shape {
        }
        int_val: 0
      }
    }
  }
}
node {
  name: "L_u/0/l2_normalize/Sum"
  op: "Sum"
  input: "L_u/0/l2_normalize/Square"
  input: "L_u/0/l2_normalize/Sum/reduction_indices"
  device: "/job:ps/task:0"
  attr {
    key: "T"
    value {
      type: DT_FLOAT
    }
  }
  attr {
    key: "Tidx"
    value {
      type: DT_INT32
    }
  }
  attr {
    key: "_output_shapes"
    value {
      list {
        shape {
          dim {
            size: 1
          }
          dim {
            size: 80
          }
        }
      }
    }
  }
  attr {
    key: "keep_dims"
    value {
      b: true
    }
  }
}
node {
  name: "L_u/0/l2_normalize/Maximum/y"
  op: "Const"
  device: "/job:ps/task:0"
  attr {
    key: "_output_shapes"
    value {
      list {
        shape {
        }
      }
    }
  }
  attr {
    key: "dtype"
    value {
      type: DT_FLOAT
    }
  }
  attr {
    key: "value"
    value {
      tensor {
        dtype: DT_FLOAT
        tensor_shape {
        }
        float_val: 9.999999960041972e-13
      }
    }
  }
}
node {
  name: "L_u/0/l2_normalize/Maximum"
  op: "Maximum"
  input: "L_u/0/l2_normalize/Sum"
  input: "L_u/0/l2_normalize/Maximum/y"
  device: "/job:ps/task:0"
  attr {
    key: "T"
    value {
      type: DT_FLOAT
    }
  }
  attr {
    key: "_output_shapes"
    value {
      list {
        shape {
          dim {
            size: 1
          }
          dim {
            size: 80
          }
        }
      }
    }
  }
}
node {
  name: "L_u/0/l2_normalize/Rsqrt"
  op: "Rsqrt"
  input: "L_u/0/l2_normalize/Maximum"
  device: "/job:ps/task:0"
  attr {
    key: "T"
    value {
      type: DT_FLOAT
    }
  }
  attr {
    key: "_output_shapes"
    value {
      list {
        shape {
          dim {
            size: 1
          }
          dim {
            size: 80
          }
        }
      }
    }
  }
}
node {
  name: "L_u/0/l2_normalize"
  op: "Mul"
  input: "L_u/0/w/read"
  input: "L_u/0/l2_normalize/Rsqrt"
  device: "/job:ps/task:0"
  attr {
    key: "T"
    value {
      type: DT_FLOAT
    }
  }
  attr {
    key: "_output_shapes"
    value {
      list {
        shape {
          dim {
            size: 240
          }
          dim {
            size: 80
          }
        }
      }
    }
  }
}
node {
  name: "L_u/0/Tile/multiples"
  op: "Const"
  device: "/job:ps/task:0"
  attr {
    key: "_output_shapes"
    value {
      list {
        shape {
          dim {
            size: 2
          }
        }
      }
    }
  }
  attr {
    key: "dtype"
    value {
      type: DT_INT32
    }
  }
  attr {
    key: "value"
    value {
      tensor {
        dtype: DT_INT32
        tensor_shape {
          dim {
            size: 2
          }
        }
        tensor_content: "\360\000\000\000\001\000\000\000"
      }
    }
  }
}
node {
  name: "L_u/0/Tile"
  op: "Tile"
  input: "L_u/0/g/read"
  input: "L_u/0/Tile/multiples"
  device: "/job:ps/task:0"
  attr {
    key: "T"
    value {
      type: DT_FLOAT
    }
  }
  attr {
    key: "Tmultiples"
    value {
      type: DT_INT32
    }
  }
  attr {
    key: "_output_shapes"
    value {
      list {
        shape {
          dim {
            size: 240
          }
          dim {
            size: 80
          }
        }
      }
    }
  }
}
node {
  name: "L_u/0/mul"
  op: "Mul"
  input: "L_u/0/l2_normalize"
  input: "L_u/0/Tile"
  device: "/job:ps/task:0"
  attr {
    key: "T"
    value {
      type: DT_FLOAT
    }
  }
  attr {
    key: "_output_shapes"
    value {
      list {
        shape {
          dim {
            size: 240
          }
          dim {
            size: 80
          }
        }
      }
    }
  }
}
node {
  name: "L_u/0/b/Initializer/zeros"
  op: "Const"
  attr {
    key: "_class"
    value {
      list {
        s: "loc:@L_u/0/b"
      }
    }
  }
  attr {
    key: "_output_shapes"
    value {
      list {
        shape {
          dim {
            size: 80
          }
        }
      }
    }
  }
  attr {
    key: "dtype"
    value {
      type: DT_FLOAT
    }
  }
  attr {
    key: "value"
    value {
      tensor {
        dtype: DT_FLOAT
        tensor_shape {
          dim {
            size: 80
          }
        }
        float_val: 0.0
      }
    }
  }
}
node {
  name: "L_u/0/b"
  op: "VariableV2"
  device: "/job:ps/task:0"
  attr {
    key: "_class"
    value {
      list {
        s: "loc:@L_u/0/b"
      }
    }
  }
  attr {
    key: "_output_shapes"
    value {
      list {
        shape {
          dim {
            size: 80
          }
        }
      }
    }
  }
  attr {
    key: "container"
    value {
      s: ""
    }
  }
  attr {
    key: "dtype"
    value {
      type: DT_FLOAT
    }
  }
  attr {
    key: "shape"
    value {
      shape {
        dim {
          size: 80
        }
      }
    }
  }
  attr {
    key: "shared_name"
    value {
      s: ""
    }
  }
}
node {
  name: "L_u/0/b/Assign"
  op: "Assign"
  input: "L_u/0/b"
  input: "L_u/0/b/Initializer/zeros"
  device: "/job:ps/task:0"
  attr {
    key: "T"
    value {
      type: DT_FLOAT
    }
  }
  attr {
    key: "_class"
    value {
      list {
        s: "loc:@L_u/0/b"
      }
    }
  }
  attr {
    key: "_output_shapes"
    value {
      list {
        shape {
          dim {
            size: 80
          }
        }
      }
    }
  }
  attr {
    key: "use_locking"
    value {
      b: true
    }
  }
  attr {
    key: "validate_shape"
    value {
      b: true
    }
  }
}
node {
  name: "L_u/0/b/read"
  op: "Identity"
  input: "L_u/0/b"
  device: "/job:ps/task:0"
  attr {
    key: "T"
    value {
      type: DT_FLOAT
    }
  }
  attr {
    key: "_class"
    value {
      list {
        s: "loc:@L_u/0/b"
      }
    }
  }
  attr {
    key: "_output_shapes"
    value {
      list {
        shape {
          dim {
            size: 80
          }
        }
      }
    }
  }
}
node {
  name: "L_u/1/w/Initializer/random_uniform/shape"
  op: "Const"
  attr {
    key: "_class"
    value {
      list {
        s: "loc:@L_u/1/w"
      }
    }
  }
  attr {
    key: "_output_shapes"
    value {
      list {
        shape {
          dim {
            size: 2
          }
        }
      }
    }
  }
  attr {
    key: "dtype"
    value {
      type: DT_INT32
    }
  }
  attr {
    key: "value"
    value {
      tensor {
        dtype: DT_INT32
        tensor_shape {
          dim {
            size: 2
          }
        }
        tensor_content: "P\000\000\000P\000\000\000"
      }
    }
  }
}
node {
  name: "L_u/1/w/Initializer/random_uniform/min"
  op: "Const"
  attr {
    key: "_class"
    value {
      list {
        s: "loc:@L_u/1/w"
      }
    }
  }
  attr {
    key: "_output_shapes"
    value {
      list {
        shape {
        }
      }
    }
  }
  attr {
    key: "dtype"
    value {
      type: DT_FLOAT
    }
  }
  attr {
    key: "value"
    value {
      tensor {
        dtype: DT_FLOAT
        tensor_shape {
        }
        float_val: -0.19364917278289795
      }
    }
  }
}
node {
  name: "L_u/1/w/Initializer/random_uniform/max"
  op: "Const"
  attr {
    key: "_class"
    value {
      list {
        s: "loc:@L_u/1/w"
      }
    }
  }
  attr {
    key: "_output_shapes"
    value {
      list {
        shape {
        }
      }
    }
  }
  attr {
    key: "dtype"
    value {
      type: DT_FLOAT
    }
  }
  attr {
    key: "value"
    value {
      tensor {
        dtype: DT_FLOAT
        tensor_shape {
        }
        float_val: 0.19364917278289795
      }
    }
  }
}
node {
  name: "L_u/1/w/Initializer/random_uniform/RandomUniform"
  op: "RandomUniform"
  input: "L_u/1/w/Initializer/random_uniform/shape"
  attr {
    key: "T"
    value {
      type: DT_INT32
    }
  }
  attr {
    key: "_class"
    value {
      list {
        s: "loc:@L_u/1/w"
      }
    }
  }
  attr {
    key: "_output_shapes"
    value {
      list {
        shape {
          dim {
            size: 80
          }
          dim {
            size: 80
          }
        }
      }
    }
  }
  attr {
    key: "dtype"
    value {
      type: DT_FLOAT
    }
  }
  attr {
    key: "seed"
    value {
      i: 0
    }
  }
  attr {
    key: "seed2"
    value {
      i: 0
    }
  }
}
node {
  name: "L_u/1/w/Initializer/random_uniform/sub"
  op: "Sub"
  input: "L_u/1/w/Initializer/random_uniform/max"
  input: "L_u/1/w/Initializer/random_uniform/min"
  attr {
    key: "T"
    value {
      type: DT_FLOAT
    }
  }
  attr {
    key: "_class"
    value {
      list {
        s: "loc:@L_u/1/w"
      }
    }
  }
  attr {
    key: "_output_shapes"
    value {
      list {
        shape {
        }
      }
    }
  }
}
node {
  name: "L_u/1/w/Initializer/random_uniform/mul"
  op: "Mul"
  input: "L_u/1/w/Initializer/random_uniform/RandomUniform"
  input: "L_u/1/w/Initializer/random_uniform/sub"
  attr {
    key: "T"
    value {
      type: DT_FLOAT
    }
  }
  attr {
    key: "_class"
    value {
      list {
        s: "loc:@L_u/1/w"
      }
    }
  }
  attr {
    key: "_output_shapes"
    value {
      list {
        shape {
          dim {
            size: 80
          }
          dim {
            size: 80
          }
        }
      }
    }
  }
}
node {
  name: "L_u/1/w/Initializer/random_uniform"
  op: "Add"
  input: "L_u/1/w/Initializer/random_uniform/mul"
  input: "L_u/1/w/Initializer/random_uniform/min"
  attr {
    key: "T"
    value {
      type: DT_FLOAT
    }
  }
  attr {
    key: "_class"
    value {
      list {
        s: "loc:@L_u/1/w"
      }
    }
  }
  attr {
    key: "_output_shapes"
    value {
      list {
        shape {
          dim {
            size: 80
          }
          dim {
            size: 80
          }
        }
      }
    }
  }
}
node {
  name: "L_u/1/w"
  op: "VariableV2"
  device: "/job:ps/task:0"
  attr {
    key: "_class"
    value {
      list {
        s: "loc:@L_u/1/w"
      }
    }
  }
  attr {
    key: "_output_shapes"
    value {
      list {
        shape {
          dim {
            size: 80
          }
          dim {
            size: 80
          }
        }
      }
    }
  }
  attr {
    key: "container"
    value {
      s: ""
    }
  }
  attr {
    key: "dtype"
    value {
      type: DT_FLOAT
    }
  }
  attr {
    key: "shape"
    value {
      shape {
        dim {
          size: 80
        }
        dim {
          size: 80
        }
      }
    }
  }
  attr {
    key: "shared_name"
    value {
      s: ""
    }
  }
}
node {
  name: "L_u/1/w/Assign"
  op: "Assign"
  input: "L_u/1/w"
  input: "L_u/1/w/Initializer/random_uniform"
  device: "/job:ps/task:0"
  attr {
    key: "T"
    value {
      type: DT_FLOAT
    }
  }
  attr {
    key: "_class"
    value {
      list {
        s: "loc:@L_u/1/w"
      }
    }
  }
  attr {
    key: "_output_shapes"
    value {
      list {
        shape {
          dim {
            size: 80
          }
          dim {
            size: 80
          }
        }
      }
    }
  }
  attr {
    key: "use_locking"
    value {
      b: true
    }
  }
  attr {
    key: "validate_shape"
    value {
      b: true
    }
  }
}
node {
  name: "L_u/1/w/read"
  op: "Identity"
  input: "L_u/1/w"
  device: "/job:ps/task:0"
  attr {
    key: "T"
    value {
      type: DT_FLOAT
    }
  }
  attr {
    key: "_class"
    value {
      list {
        s: "loc:@L_u/1/w"
      }
    }
  }
  attr {
    key: "_output_shapes"
    value {
      list {
        shape {
          dim {
            size: 80
          }
          dim {
            size: 80
          }
        }
      }
    }
  }
}
node {
  name: "L_u/1/g/Initializer/ones"
  op: "Const"
  attr {
    key: "_class"
    value {
      list {
        s: "loc:@L_u/1/g"
      }
    }
  }
  attr {
    key: "_output_shapes"
    value {
      list {
        shape {
          dim {
            size: 1
          }
          dim {
            size: 80
          }
        }
      }
    }
  }
  attr {
    key: "dtype"
    value {
      type: DT_FLOAT
    }
  }
  attr {
    key: "value"
    value {
      tensor {
        dtype: DT_FLOAT
        tensor_shape {
          dim {
            size: 1
          }
          dim {
            size: 80
          }
        }
        float_val: 1.0
      }
    }
  }
}
node {
  name: "L_u/1/g"
  op: "VariableV2"
  device: "/job:ps/task:0"
  attr {
    key: "_class"
    value {
      list {
        s: "loc:@L_u/1/g"
      }
    }
  }
  attr {
    key: "_output_shapes"
    value {
      list {
        shape {
          dim {
            size: 1
          }
          dim {
            size: 80
          }
        }
      }
    }
  }
  attr {
    key: "container"
    value {
      s: ""
    }
  }
  attr {
    key: "dtype"
    value {
      type: DT_FLOAT
    }
  }
  attr {
    key: "shape"
    value {
      shape {
        dim {
          size: 1
        }
        dim {
          size: 80
        }
      }
    }
  }
  attr {
    key: "shared_name"
    value {
      s: ""
    }
  }
}
node {
  name: "L_u/1/g/Assign"
  op: "Assign"
  input: "L_u/1/g"
  input: "L_u/1/g/Initializer/ones"
  device: "/job:ps/task:0"
  attr {
    key: "T"
    value {
      type: DT_FLOAT
    }
  }
  attr {
    key: "_class"
    value {
      list {
        s: "loc:@L_u/1/g"
      }
    }
  }
  attr {
    key: "_output_shapes"
    value {
      list {
        shape {
          dim {
            size: 1
          }
          dim {
            size: 80
          }
        }
      }
    }
  }
  attr {
    key: "use_locking"
    value {
      b: true
    }
  }
  attr {
    key: "validate_shape"
    value {
      b: true
    }
  }
}
node {
  name: "L_u/1/g/read"
  op: "Identity"
  input: "L_u/1/g"
  device: "/job:ps/task:0"
  attr {
    key: "T"
    value {
      type: DT_FLOAT
    }
  }
  attr {
    key: "_class"
    value {
      list {
        s: "loc:@L_u/1/g"
      }
    }
  }
  attr {
    key: "_output_shapes"
    value {
      list {
        shape {
          dim {
            size: 1
          }
          dim {
            size: 80
          }
        }
      }
    }
  }
}
node {
  name: "L_u/1/l2_normalize/Square"
  op: "Square"
  input: "L_u/1/w/read"
  device: "/job:ps/task:0"
  attr {
    key: "T"
    value {
      type: DT_FLOAT
    }
  }
  attr {
    key: "_output_shapes"
    value {
      list {
        shape {
          dim {
            size: 80
          }
          dim {
            size: 80
          }
        }
      }
    }
  }
}
node {
  name: "L_u/1/l2_normalize/Sum/reduction_indices"
  op: "Const"
  device: "/job:ps/task:0"
  attr {
    key: "_output_shapes"
    value {
      list {
        shape {
        }
      }
    }
  }
  attr {
    key: "dtype"
    value {
      type: DT_INT32
    }
  }
  attr {
    key: "value"
    value {
      tensor {
        dtype: DT_INT32
        tensor_shape {
        }
        int_val: 0
      }
    }
  }
}
node {
  name: "L_u/1/l2_normalize/Sum"
  op: "Sum"
  input: "L_u/1/l2_normalize/Square"
  input: "L_u/1/l2_normalize/Sum/reduction_indices"
  device: "/job:ps/task:0"
  attr {
    key: "T"
    value {
      type: DT_FLOAT
    }
  }
  attr {
    key: "Tidx"
    value {
      type: DT_INT32
    }
  }
  attr {
    key: "_output_shapes"
    value {
      list {
        shape {
          dim {
            size: 1
          }
          dim {
            size: 80
          }
        }
      }
    }
  }
  attr {
    key: "keep_dims"
    value {
      b: true
    }
  }
}
node {
  name: "L_u/1/l2_normalize/Maximum/y"
  op: "Const"
  device: "/job:ps/task:0"
  attr {
    key: "_output_shapes"
    value {
      list {
        shape {
        }
      }
    }
  }
  attr {
    key: "dtype"
    value {
      type: DT_FLOAT
    }
  }
  attr {
    key: "value"
    value {
      tensor {
        dtype: DT_FLOAT
        tensor_shape {
        }
        float_val: 9.999999960041972e-13
      }
    }
  }
}
node {
  name: "L_u/1/l2_normalize/Maximum"
  op: "Maximum"
  input: "L_u/1/l2_normalize/Sum"
  input: "L_u/1/l2_normalize/Maximum/y"
  device: "/job:ps/task:0"
  attr {
    key: "T"
    value {
      type: DT_FLOAT
    }
  }
  attr {
    key: "_output_shapes"
    value {
      list {
        shape {
          dim {
            size: 1
          }
          dim {
            size: 80
          }
        }
      }
    }
  }
}
node {
  name: "L_u/1/l2_normalize/Rsqrt"
  op: "Rsqrt"
  input: "L_u/1/l2_normalize/Maximum"
  device: "/job:ps/task:0"
  attr {
    key: "T"
    value {
      type: DT_FLOAT
    }
  }
  attr {
    key: "_output_shapes"
    value {
      list {
        shape {
          dim {
            size: 1
          }
          dim {
            size: 80
          }
        }
      }
    }
  }
}
node {
  name: "L_u/1/l2_normalize"
  op: "Mul"
  input: "L_u/1/w/read"
  input: "L_u/1/l2_normalize/Rsqrt"
  device: "/job:ps/task:0"
  attr {
    key: "T"
    value {
      type: DT_FLOAT
    }
  }
  attr {
    key: "_output_shapes"
    value {
      list {
        shape {
          dim {
            size: 80
          }
          dim {
            size: 80
          }
        }
      }
    }
  }
}
node {
  name: "L_u/1/Tile/multiples"
  op: "Const"
  device: "/job:ps/task:0"
  attr {
    key: "_output_shapes"
    value {
      list {
        shape {
          dim {
            size: 2
          }
        }
      }
    }
  }
  attr {
    key: "dtype"
    value {
      type: DT_INT32
    }
  }
  attr {
    key: "value"
    value {
      tensor {
        dtype: DT_INT32
        tensor_shape {
          dim {
            size: 2
          }
        }
        tensor_content: "P\000\000\000\001\000\000\000"
      }
    }
  }
}
node {
  name: "L_u/1/Tile"
  op: "Tile"
  input: "L_u/1/g/read"
  input: "L_u/1/Tile/multiples"
  device: "/job:ps/task:0"
  attr {
    key: "T"
    value {
      type: DT_FLOAT
    }
  }
  attr {
    key: "Tmultiples"
    value {
      type: DT_INT32
    }
  }
  attr {
    key: "_output_shapes"
    value {
      list {
        shape {
          dim {
            size: 80
          }
          dim {
            size: 80
          }
        }
      }
    }
  }
}
node {
  name: "L_u/1/mul"
  op: "Mul"
  input: "L_u/1/l2_normalize"
  input: "L_u/1/Tile"
  device: "/job:ps/task:0"
  attr {
    key: "T"
    value {
      type: DT_FLOAT
    }
  }
  attr {
    key: "_output_shapes"
    value {
      list {
        shape {
          dim {
            size: 80
          }
          dim {
            size: 80
          }
        }
      }
    }
  }
}
node {
  name: "L_u/1/b/Initializer/zeros"
  op: "Const"
  attr {
    key: "_class"
    value {
      list {
        s: "loc:@L_u/1/b"
      }
    }
  }
  attr {
    key: "_output_shapes"
    value {
      list {
        shape {
          dim {
            size: 80
          }
        }
      }
    }
  }
  attr {
    key: "dtype"
    value {
      type: DT_FLOAT
    }
  }
  attr {
    key: "value"
    value {
      tensor {
        dtype: DT_FLOAT
        tensor_shape {
          dim {
            size: 80
          }
        }
        float_val: 0.0
      }
    }
  }
}
node {
  name: "L_u/1/b"
  op: "VariableV2"
  device: "/job:ps/task:0"
  attr {
    key: "_class"
    value {
      list {
        s: "loc:@L_u/1/b"
      }
    }
  }
  attr {
    key: "_output_shapes"
    value {
      list {
        shape {
          dim {
            size: 80
          }
        }
      }
    }
  }
  attr {
    key: "container"
    value {
      s: ""
    }
  }
  attr {
    key: "dtype"
    value {
      type: DT_FLOAT
    }
  }
  attr {
    key: "shape"
    value {
      shape {
        dim {
          size: 80
        }
      }
    }
  }
  attr {
    key: "shared_name"
    value {
      s: ""
    }
  }
}
node {
  name: "L_u/1/b/Assign"
  op: "Assign"
  input: "L_u/1/b"
  input: "L_u/1/b/Initializer/zeros"
  device: "/job:ps/task:0"
  attr {
    key: "T"
    value {
      type: DT_FLOAT
    }
  }
  attr {
    key: "_class"
    value {
      list {
        s: "loc:@L_u/1/b"
      }
    }
  }
  attr {
    key: "_output_shapes"
    value {
      list {
        shape {
          dim {
            size: 80
          }
        }
      }
    }
  }
  attr {
    key: "use_locking"
    value {
      b: true
    }
  }
  attr {
    key: "validate_shape"
    value {
      b: true
    }
  }
}
node {
  name: "L_u/1/b/read"
  op: "Identity"
  input: "L_u/1/b"
  device: "/job:ps/task:0"
  attr {
    key: "T"
    value {
      type: DT_FLOAT
    }
  }
  attr {
    key: "_class"
    value {
      list {
        s: "loc:@L_u/1/b"
      }
    }
  }
  attr {
    key: "_output_shapes"
    value {
      list {
        shape {
          dim {
            size: 80
          }
        }
      }
    }
  }
}
node {
  name: "C_u/0/w/Initializer/random_uniform/shape"
  op: "Const"
  attr {
    key: "_class"
    value {
      list {
        s: "loc:@C_u/0/w"
      }
    }
  }
  attr {
    key: "_output_shapes"
    value {
      list {
        shape {
          dim {
            size: 2
          }
        }
      }
    }
  }
  attr {
    key: "dtype"
    value {
      type: DT_INT32
    }
  }
  attr {
    key: "value"
    value {
      tensor {
        dtype: DT_INT32
        tensor_shape {
          dim {
            size: 2
          }
        }
        tensor_content: "\240\000\000\000P\000\000\000"
      }
    }
  }
}
node {
  name: "C_u/0/w/Initializer/random_uniform/min"
  op: "Const"
  attr {
    key: "_class"
    value {
      list {
        s: "loc:@C_u/0/w"
      }
    }
  }
  attr {
    key: "_output_shapes"
    value {
      list {
        shape {
        }
      }
    }
  }
  attr {
    key: "dtype"
    value {
      type: DT_FLOAT
    }
  }
  attr {
    key: "value"
    value {
      tensor {
        dtype: DT_FLOAT
        tensor_shape {
        }
        float_val: -0.15811388194561005
      }
    }
  }
}
node {
  name: "C_u/0/w/Initializer/random_uniform/max"
  op: "Const"
  attr {
    key: "_class"
    value {
      list {
        s: "loc:@C_u/0/w"
      }
    }
  }
  attr {
    key: "_output_shapes"
    value {
      list {
        shape {
        }
      }
    }
  }
  attr {
    key: "dtype"
    value {
      type: DT_FLOAT
    }
  }
  attr {
    key: "value"
    value {
      tensor {
        dtype: DT_FLOAT
        tensor_shape {
        }
        float_val: 0.15811388194561005
      }
    }
  }
}
node {
  name: "C_u/0/w/Initializer/random_uniform/RandomUniform"
  op: "RandomUniform"
  input: "C_u/0/w/Initializer/random_uniform/shape"
  attr {
    key: "T"
    value {
      type: DT_INT32
    }
  }
  attr {
    key: "_class"
    value {
      list {
        s: "loc:@C_u/0/w"
      }
    }
  }
  attr {
    key: "_output_shapes"
    value {
      list {
        shape {
          dim {
            size: 160
          }
          dim {
            size: 80
          }
        }
      }
    }
  }
  attr {
    key: "dtype"
    value {
      type: DT_FLOAT
    }
  }
  attr {
    key: "seed"
    value {
      i: 0
    }
  }
  attr {
    key: "seed2"
    value {
      i: 0
    }
  }
}
node {
  name: "C_u/0/w/Initializer/random_uniform/sub"
  op: "Sub"
  input: "C_u/0/w/Initializer/random_uniform/max"
  input: "C_u/0/w/Initializer/random_uniform/min"
  attr {
    key: "T"
    value {
      type: DT_FLOAT
    }
  }
  attr {
    key: "_class"
    value {
      list {
        s: "loc:@C_u/0/w"
      }
    }
  }
  attr {
    key: "_output_shapes"
    value {
      list {
        shape {
        }
      }
    }
  }
}
node {
  name: "C_u/0/w/Initializer/random_uniform/mul"
  op: "Mul"
  input: "C_u/0/w/Initializer/random_uniform/RandomUniform"
  input: "C_u/0/w/Initializer/random_uniform/sub"
  attr {
    key: "T"
    value {
      type: DT_FLOAT
    }
  }
  attr {
    key: "_class"
    value {
      list {
        s: "loc:@C_u/0/w"
      }
    }
  }
  attr {
    key: "_output_shapes"
    value {
      list {
        shape {
          dim {
            size: 160
          }
          dim {
            size: 80
          }
        }
      }
    }
  }
}
node {
  name: "C_u/0/w/Initializer/random_uniform"
  op: "Add"
  input: "C_u/0/w/Initializer/random_uniform/mul"
  input: "C_u/0/w/Initializer/random_uniform/min"
  attr {
    key: "T"
    value {
      type: DT_FLOAT
    }
  }
  attr {
    key: "_class"
    value {
      list {
        s: "loc:@C_u/0/w"
      }
    }
  }
  attr {
    key: "_output_shapes"
    value {
      list {
        shape {
          dim {
            size: 160
          }
          dim {
            size: 80
          }
        }
      }
    }
  }
}
node {
  name: "C_u/0/w"
  op: "VariableV2"
  device: "/job:ps/task:0"
  attr {
    key: "_class"
    value {
      list {
        s: "loc:@C_u/0/w"
      }
    }
  }
  attr {
    key: "_output_shapes"
    value {
      list {
        shape {
          dim {
            size: 160
          }
          dim {
            size: 80
          }
        }
      }
    }
  }
  attr {
    key: "container"
    value {
      s: ""
    }
  }
  attr {
    key: "dtype"
    value {
      type: DT_FLOAT
    }
  }
  attr {
    key: "shape"
    value {
      shape {
        dim {
          size: 160
        }
        dim {
          size: 80
        }
      }
    }
  }
  attr {
    key: "shared_name"
    value {
      s: ""
    }
  }
}
node {
  name: "C_u/0/w/Assign"
  op: "Assign"
  input: "C_u/0/w"
  input: "C_u/0/w/Initializer/random_uniform"
  device: "/job:ps/task:0"
  attr {
    key: "T"
    value {
      type: DT_FLOAT
    }
  }
  attr {
    key: "_class"
    value {
      list {
        s: "loc:@C_u/0/w"
      }
    }
  }
  attr {
    key: "_output_shapes"
    value {
      list {
        shape {
          dim {
            size: 160
          }
          dim {
            size: 80
          }
        }
      }
    }
  }
  attr {
    key: "use_locking"
    value {
      b: true
    }
  }
  attr {
    key: "validate_shape"
    value {
      b: true
    }
  }
}
node {
  name: "C_u/0/w/read"
  op: "Identity"
  input: "C_u/0/w"
  device: "/job:ps/task:0"
  attr {
    key: "T"
    value {
      type: DT_FLOAT
    }
  }
  attr {
    key: "_class"
    value {
      list {
        s: "loc:@C_u/0/w"
      }
    }
  }
  attr {
    key: "_output_shapes"
    value {
      list {
        shape {
          dim {
            size: 160
          }
          dim {
            size: 80
          }
        }
      }
    }
  }
}
node {
  name: "C_u/0/g/Initializer/ones"
  op: "Const"
  attr {
    key: "_class"
    value {
      list {
        s: "loc:@C_u/0/g"
      }
    }
  }
  attr {
    key: "_output_shapes"
    value {
      list {
        shape {
          dim {
            size: 1
          }
          dim {
            size: 80
          }
        }
      }
    }
  }
  attr {
    key: "dtype"
    value {
      type: DT_FLOAT
    }
  }
  attr {
    key: "value"
    value {
      tensor {
        dtype: DT_FLOAT
        tensor_shape {
          dim {
            size: 1
          }
          dim {
            size: 80
          }
        }
        float_val: 1.0
      }
    }
  }
}
node {
  name: "C_u/0/g"
  op: "VariableV2"
  device: "/job:ps/task:0"
  attr {
    key: "_class"
    value {
      list {
        s: "loc:@C_u/0/g"
      }
    }
  }
  attr {
    key: "_output_shapes"
    value {
      list {
        shape {
          dim {
            size: 1
          }
          dim {
            size: 80
          }
        }
      }
    }
  }
  attr {
    key: "container"
    value {
      s: ""
    }
  }
  attr {
    key: "dtype"
    value {
      type: DT_FLOAT
    }
  }
  attr {
    key: "shape"
    value {
      shape {
        dim {
          size: 1
        }
        dim {
          size: 80
        }
      }
    }
  }
  attr {
    key: "shared_name"
    value {
      s: ""
    }
  }
}
node {
  name: "C_u/0/g/Assign"
  op: "Assign"
  input: "C_u/0/g"
  input: "C_u/0/g/Initializer/ones"
  device: "/job:ps/task:0"
  attr {
    key: "T"
    value {
      type: DT_FLOAT
    }
  }
  attr {
    key: "_class"
    value {
      list {
        s: "loc:@C_u/0/g"
      }
    }
  }
  attr {
    key: "_output_shapes"
    value {
      list {
        shape {
          dim {
            size: 1
          }
          dim {
            size: 80
          }
        }
      }
    }
  }
  attr {
    key: "use_locking"
    value {
      b: true
    }
  }
  attr {
    key: "validate_shape"
    value {
      b: true
    }
  }
}
node {
  name: "C_u/0/g/read"
  op: "Identity"
  input: "C_u/0/g"
  device: "/job:ps/task:0"
  attr {
    key: "T"
    value {
      type: DT_FLOAT
    }
  }
  attr {
    key: "_class"
    value {
      list {
        s: "loc:@C_u/0/g"
      }
    }
  }
  attr {
    key: "_output_shapes"
    value {
      list {
        shape {
          dim {
            size: 1
          }
          dim {
            size: 80
          }
        }
      }
    }
  }
}
node {
  name: "C_u/0/l2_normalize/Square"
  op: "Square"
  input: "C_u/0/w/read"
  device: "/job:ps/task:0"
  attr {
    key: "T"
    value {
      type: DT_FLOAT
    }
  }
  attr {
    key: "_output_shapes"
    value {
      list {
        shape {
          dim {
            size: 160
          }
          dim {
            size: 80
          }
        }
      }
    }
  }
}
node {
  name: "C_u/0/l2_normalize/Sum/reduction_indices"
  op: "Const"
  device: "/job:ps/task:0"
  attr {
    key: "_output_shapes"
    value {
      list {
        shape {
        }
      }
    }
  }
  attr {
    key: "dtype"
    value {
      type: DT_INT32
    }
  }
  attr {
    key: "value"
    value {
      tensor {
        dtype: DT_INT32
        tensor_shape {
        }
        int_val: 0
      }
    }
  }
}
node {
  name: "C_u/0/l2_normalize/Sum"
  op: "Sum"
  input: "C_u/0/l2_normalize/Square"
  input: "C_u/0/l2_normalize/Sum/reduction_indices"
  device: "/job:ps/task:0"
  attr {
    key: "T"
    value {
      type: DT_FLOAT
    }
  }
  attr {
    key: "Tidx"
    value {
      type: DT_INT32
    }
  }
  attr {
    key: "_output_shapes"
    value {
      list {
        shape {
          dim {
            size: 1
          }
          dim {
            size: 80
          }
        }
      }
    }
  }
  attr {
    key: "keep_dims"
    value {
      b: true
    }
  }
}
node {
  name: "C_u/0/l2_normalize/Maximum/y"
  op: "Const"
  device: "/job:ps/task:0"
  attr {
    key: "_output_shapes"
    value {
      list {
        shape {
        }
      }
    }
  }
  attr {
    key: "dtype"
    value {
      type: DT_FLOAT
    }
  }
  attr {
    key: "value"
    value {
      tensor {
        dtype: DT_FLOAT
        tensor_shape {
        }
        float_val: 9.999999960041972e-13
      }
    }
  }
}
node {
  name: "C_u/0/l2_normalize/Maximum"
  op: "Maximum"
  input: "C_u/0/l2_normalize/Sum"
  input: "C_u/0/l2_normalize/Maximum/y"
  device: "/job:ps/task:0"
  attr {
    key: "T"
    value {
      type: DT_FLOAT
    }
  }
  attr {
    key: "_output_shapes"
    value {
      list {
        shape {
          dim {
            size: 1
          }
          dim {
            size: 80
          }
        }
      }
    }
  }
}
node {
  name: "C_u/0/l2_normalize/Rsqrt"
  op: "Rsqrt"
  input: "C_u/0/l2_normalize/Maximum"
  device: "/job:ps/task:0"
  attr {
    key: "T"
    value {
      type: DT_FLOAT
    }
  }
  attr {
    key: "_output_shapes"
    value {
      list {
        shape {
          dim {
            size: 1
          }
          dim {
            size: 80
          }
        }
      }
    }
  }
}
node {
  name: "C_u/0/l2_normalize"
  op: "Mul"
  input: "C_u/0/w/read"
  input: "C_u/0/l2_normalize/Rsqrt"
  device: "/job:ps/task:0"
  attr {
    key: "T"
    value {
      type: DT_FLOAT
    }
  }
  attr {
    key: "_output_shapes"
    value {
      list {
        shape {
          dim {
            size: 160
          }
          dim {
            size: 80
          }
        }
      }
    }
  }
}
node {
  name: "C_u/0/Tile/multiples"
  op: "Const"
  device: "/job:ps/task:0"
  attr {
    key: "_output_shapes"
    value {
      list {
        shape {
          dim {
            size: 2
          }
        }
      }
    }
  }
  attr {
    key: "dtype"
    value {
      type: DT_INT32
    }
  }
  attr {
    key: "value"
    value {
      tensor {
        dtype: DT_INT32
        tensor_shape {
          dim {
            size: 2
          }
        }
        tensor_content: "\240\000\000\000\001\000\000\000"
      }
    }
  }
}
node {
  name: "C_u/0/Tile"
  op: "Tile"
  input: "C_u/0/g/read"
  input: "C_u/0/Tile/multiples"
  device: "/job:ps/task:0"
  attr {
    key: "T"
    value {
      type: DT_FLOAT
    }
  }
  attr {
    key: "Tmultiples"
    value {
      type: DT_INT32
    }
  }
  attr {
    key: "_output_shapes"
    value {
      list {
        shape {
          dim {
            size: 160
          }
          dim {
            size: 80
          }
        }
      }
    }
  }
}
node {
  name: "C_u/0/mul"
  op: "Mul"
  input: "C_u/0/l2_normalize"
  input: "C_u/0/Tile"
  device: "/job:ps/task:0"
  attr {
    key: "T"
    value {
      type: DT_FLOAT
    }
  }
  attr {
    key: "_output_shapes"
    value {
      list {
        shape {
          dim {
            size: 160
          }
          dim {
            size: 80
          }
        }
      }
    }
  }
}
node {
  name: "C_u/0/b/Initializer/zeros"
  op: "Const"
  attr {
    key: "_class"
    value {
      list {
        s: "loc:@C_u/0/b"
      }
    }
  }
  attr {
    key: "_output_shapes"
    value {
      list {
        shape {
          dim {
            size: 80
          }
        }
      }
    }
  }
  attr {
    key: "dtype"
    value {
      type: DT_FLOAT
    }
  }
  attr {
    key: "value"
    value {
      tensor {
        dtype: DT_FLOAT
        tensor_shape {
          dim {
            size: 80
          }
        }
        float_val: 0.0
      }
    }
  }
}
node {
  name: "C_u/0/b"
  op: "VariableV2"
  device: "/job:ps/task:0"
  attr {
    key: "_class"
    value {
      list {
        s: "loc:@C_u/0/b"
      }
    }
  }
  attr {
    key: "_output_shapes"
    value {
      list {
        shape {
          dim {
            size: 80
          }
        }
      }
    }
  }
  attr {
    key: "container"
    value {
      s: ""
    }
  }
  attr {
    key: "dtype"
    value {
      type: DT_FLOAT
    }
  }
  attr {
    key: "shape"
    value {
      shape {
        dim {
          size: 80
        }
      }
    }
  }
  attr {
    key: "shared_name"
    value {
      s: ""
    }
  }
}
node {
  name: "C_u/0/b/Assign"
  op: "Assign"
  input: "C_u/0/b"
  input: "C_u/0/b/Initializer/zeros"
  device: "/job:ps/task:0"
  attr {
    key: "T"
    value {
      type: DT_FLOAT
    }
  }
  attr {
    key: "_class"
    value {
      list {
        s: "loc:@C_u/0/b"
      }
    }
  }
  attr {
    key: "_output_shapes"
    value {
      list {
        shape {
          dim {
            size: 80
          }
        }
      }
    }
  }
  attr {
    key: "use_locking"
    value {
      b: true
    }
  }
  attr {
    key: "validate_shape"
    value {
      b: true
    }
  }
}
node {
  name: "C_u/0/b/read"
  op: "Identity"
  input: "C_u/0/b"
  device: "/job:ps/task:0"
  attr {
    key: "T"
    value {
      type: DT_FLOAT
    }
  }
  attr {
    key: "_class"
    value {
      list {
        s: "loc:@C_u/0/b"
      }
    }
  }
  attr {
    key: "_output_shapes"
    value {
      list {
        shape {
          dim {
            size: 80
          }
        }
      }
    }
  }
}
node {
  name: "C_u/1/w/Initializer/random_uniform/shape"
  op: "Const"
  attr {
    key: "_class"
    value {
      list {
        s: "loc:@C_u/1/w"
      }
    }
  }
  attr {
    key: "_output_shapes"
    value {
      list {
        shape {
          dim {
            size: 2
          }
        }
      }
    }
  }
  attr {
    key: "dtype"
    value {
      type: DT_INT32
    }
  }
  attr {
    key: "value"
    value {
      tensor {
        dtype: DT_INT32
        tensor_shape {
          dim {
            size: 2
          }
        }
        tensor_content: "P\000\000\000P\000\000\000"
      }
    }
  }
}
node {
  name: "C_u/1/w/Initializer/random_uniform/min"
  op: "Const"
  attr {
    key: "_class"
    value {
      list {
        s: "loc:@C_u/1/w"
      }
    }
  }
  attr {
    key: "_output_shapes"
    value {
      list {
        shape {
        }
      }
    }
  }
  attr {
    key: "dtype"
    value {
      type: DT_FLOAT
    }
  }
  attr {
    key: "value"
    value {
      tensor {
        dtype: DT_FLOAT
        tensor_shape {
        }
        float_val: -0.19364917278289795
      }
    }
  }
}
node {
  name: "C_u/1/w/Initializer/random_uniform/max"
  op: "Const"
  attr {
    key: "_class"
    value {
      list {
        s: "loc:@C_u/1/w"
      }
    }
  }
  attr {
    key: "_output_shapes"
    value {
      list {
        shape {
        }
      }
    }
  }
  attr {
    key: "dtype"
    value {
      type: DT_FLOAT
    }
  }
  attr {
    key: "value"
    value {
      tensor {
        dtype: DT_FLOAT
        tensor_shape {
        }
        float_val: 0.19364917278289795
      }
    }
  }
}
node {
  name: "C_u/1/w/Initializer/random_uniform/RandomUniform"
  op: "RandomUniform"
  input: "C_u/1/w/Initializer/random_uniform/shape"
  attr {
    key: "T"
    value {
      type: DT_INT32
    }
  }
  attr {
    key: "_class"
    value {
      list {
        s: "loc:@C_u/1/w"
      }
    }
  }
  attr {
    key: "_output_shapes"
    value {
      list {
        shape {
          dim {
            size: 80
          }
          dim {
            size: 80
          }
        }
      }
    }
  }
  attr {
    key: "dtype"
    value {
      type: DT_FLOAT
    }
  }
  attr {
    key: "seed"
    value {
      i: 0
    }
  }
  attr {
    key: "seed2"
    value {
      i: 0
    }
  }
}
node {
  name: "C_u/1/w/Initializer/random_uniform/sub"
  op: "Sub"
  input: "C_u/1/w/Initializer/random_uniform/max"
  input: "C_u/1/w/Initializer/random_uniform/min"
  attr {
    key: "T"
    value {
      type: DT_FLOAT
    }
  }
  attr {
    key: "_class"
    value {
      list {
        s: "loc:@C_u/1/w"
      }
    }
  }
  attr {
    key: "_output_shapes"
    value {
      list {
        shape {
        }
      }
    }
  }
}
node {
  name: "C_u/1/w/Initializer/random_uniform/mul"
  op: "Mul"
  input: "C_u/1/w/Initializer/random_uniform/RandomUniform"
  input: "C_u/1/w/Initializer/random_uniform/sub"
  attr {
    key: "T"
    value {
      type: DT_FLOAT
    }
  }
  attr {
    key: "_class"
    value {
      list {
        s: "loc:@C_u/1/w"
      }
    }
  }
  attr {
    key: "_output_shapes"
    value {
      list {
        shape {
          dim {
            size: 80
          }
          dim {
            size: 80
          }
        }
      }
    }
  }
}
node {
  name: "C_u/1/w/Initializer/random_uniform"
  op: "Add"
  input: "C_u/1/w/Initializer/random_uniform/mul"
  input: "C_u/1/w/Initializer/random_uniform/min"
  attr {
    key: "T"
    value {
      type: DT_FLOAT
    }
  }
  attr {
    key: "_class"
    value {
      list {
        s: "loc:@C_u/1/w"
      }
    }
  }
  attr {
    key: "_output_shapes"
    value {
      list {
        shape {
          dim {
            size: 80
          }
          dim {
            size: 80
          }
        }
      }
    }
  }
}
node {
  name: "C_u/1/w"
  op: "VariableV2"
  device: "/job:ps/task:0"
  attr {
    key: "_class"
    value {
      list {
        s: "loc:@C_u/1/w"
      }
    }
  }
  attr {
    key: "_output_shapes"
    value {
      list {
        shape {
          dim {
            size: 80
          }
          dim {
            size: 80
          }
        }
      }
    }
  }
  attr {
    key: "container"
    value {
      s: ""
    }
  }
  attr {
    key: "dtype"
    value {
      type: DT_FLOAT
    }
  }
  attr {
    key: "shape"
    value {
      shape {
        dim {
          size: 80
        }
        dim {
          size: 80
        }
      }
    }
  }
  attr {
    key: "shared_name"
    value {
      s: ""
    }
  }
}
node {
  name: "C_u/1/w/Assign"
  op: "Assign"
  input: "C_u/1/w"
  input: "C_u/1/w/Initializer/random_uniform"
  device: "/job:ps/task:0"
  attr {
    key: "T"
    value {
      type: DT_FLOAT
    }
  }
  attr {
    key: "_class"
    value {
      list {
        s: "loc:@C_u/1/w"
      }
    }
  }
  attr {
    key: "_output_shapes"
    value {
      list {
        shape {
          dim {
            size: 80
          }
          dim {
            size: 80
          }
        }
      }
    }
  }
  attr {
    key: "use_locking"
    value {
      b: true
    }
  }
  attr {
    key: "validate_shape"
    value {
      b: true
    }
  }
}
node {
  name: "C_u/1/w/read"
  op: "Identity"
  input: "C_u/1/w"
  device: "/job:ps/task:0"
  attr {
    key: "T"
    value {
      type: DT_FLOAT
    }
  }
  attr {
    key: "_class"
    value {
      list {
        s: "loc:@C_u/1/w"
      }
    }
  }
  attr {
    key: "_output_shapes"
    value {
      list {
        shape {
          dim {
            size: 80
          }
          dim {
            size: 80
          }
        }
      }
    }
  }
}
node {
  name: "C_u/1/g/Initializer/ones"
  op: "Const"
  attr {
    key: "_class"
    value {
      list {
        s: "loc:@C_u/1/g"
      }
    }
  }
  attr {
    key: "_output_shapes"
    value {
      list {
        shape {
          dim {
            size: 1
          }
          dim {
            size: 80
          }
        }
      }
    }
  }
  attr {
    key: "dtype"
    value {
      type: DT_FLOAT
    }
  }
  attr {
    key: "value"
    value {
      tensor {
        dtype: DT_FLOAT
        tensor_shape {
          dim {
            size: 1
          }
          dim {
            size: 80
          }
        }
        float_val: 1.0
      }
    }
  }
}
node {
  name: "C_u/1/g"
  op: "VariableV2"
  device: "/job:ps/task:0"
  attr {
    key: "_class"
    value {
      list {
        s: "loc:@C_u/1/g"
      }
    }
  }
  attr {
    key: "_output_shapes"
    value {
      list {
        shape {
          dim {
            size: 1
          }
          dim {
            size: 80
          }
        }
      }
    }
  }
  attr {
    key: "container"
    value {
      s: ""
    }
  }
  attr {
    key: "dtype"
    value {
      type: DT_FLOAT
    }
  }
  attr {
    key: "shape"
    value {
      shape {
        dim {
          size: 1
        }
        dim {
          size: 80
        }
      }
    }
  }
  attr {
    key: "shared_name"
    value {
      s: ""
    }
  }
}
node {
  name: "C_u/1/g/Assign"
  op: "Assign"
  input: "C_u/1/g"
  input: "C_u/1/g/Initializer/ones"
  device: "/job:ps/task:0"
  attr {
    key: "T"
    value {
      type: DT_FLOAT
    }
  }
  attr {
    key: "_class"
    value {
      list {
        s: "loc:@C_u/1/g"
      }
    }
  }
  attr {
    key: "_output_shapes"
    value {
      list {
        shape {
          dim {
            size: 1
          }
          dim {
            size: 80
          }
        }
      }
    }
  }
  attr {
    key: "use_locking"
    value {
      b: true
    }
  }
  attr {
    key: "validate_shape"
    value {
      b: true
    }
  }
}
node {
  name: "C_u/1/g/read"
  op: "Identity"
  input: "C_u/1/g"
  device: "/job:ps/task:0"
  attr {
    key: "T"
    value {
      type: DT_FLOAT
    }
  }
  attr {
    key: "_class"
    value {
      list {
        s: "loc:@C_u/1/g"
      }
    }
  }
  attr {
    key: "_output_shapes"
    value {
      list {
        shape {
          dim {
            size: 1
          }
          dim {
            size: 80
          }
        }
      }
    }
  }
}
node {
  name: "C_u/1/l2_normalize/Square"
  op: "Square"
  input: "C_u/1/w/read"
  device: "/job:ps/task:0"
  attr {
    key: "T"
    value {
      type: DT_FLOAT
    }
  }
  attr {
    key: "_output_shapes"
    value {
      list {
        shape {
          dim {
            size: 80
          }
          dim {
            size: 80
          }
        }
      }
    }
  }
}
node {
  name: "C_u/1/l2_normalize/Sum/reduction_indices"
  op: "Const"
  device: "/job:ps/task:0"
  attr {
    key: "_output_shapes"
    value {
      list {
        shape {
        }
      }
    }
  }
  attr {
    key: "dtype"
    value {
      type: DT_INT32
    }
  }
  attr {
    key: "value"
    value {
      tensor {
        dtype: DT_INT32
        tensor_shape {
        }
        int_val: 0
      }
    }
  }
}
node {
  name: "C_u/1/l2_normalize/Sum"
  op: "Sum"
  input: "C_u/1/l2_normalize/Square"
  input: "C_u/1/l2_normalize/Sum/reduction_indices"
  device: "/job:ps/task:0"
  attr {
    key: "T"
    value {
      type: DT_FLOAT
    }
  }
  attr {
    key: "Tidx"
    value {
      type: DT_INT32
    }
  }
  attr {
    key: "_output_shapes"
    value {
      list {
        shape {
          dim {
            size: 1
          }
          dim {
            size: 80
          }
        }
      }
    }
  }
  attr {
    key: "keep_dims"
    value {
      b: true
    }
  }
}
node {
  name: "C_u/1/l2_normalize/Maximum/y"
  op: "Const"
  device: "/job:ps/task:0"
  attr {
    key: "_output_shapes"
    value {
      list {
        shape {
        }
      }
    }
  }
  attr {
    key: "dtype"
    value {
      type: DT_FLOAT
    }
  }
  attr {
    key: "value"
    value {
      tensor {
        dtype: DT_FLOAT
        tensor_shape {
        }
        float_val: 9.999999960041972e-13
      }
    }
  }
}
node {
  name: "C_u/1/l2_normalize/Maximum"
  op: "Maximum"
  input: "C_u/1/l2_normalize/Sum"
  input: "C_u/1/l2_normalize/Maximum/y"
  device: "/job:ps/task:0"
  attr {
    key: "T"
    value {
      type: DT_FLOAT
    }
  }
  attr {
    key: "_output_shapes"
    value {
      list {
        shape {
          dim {
            size: 1
          }
          dim {
            size: 80
          }
        }
      }
    }
  }
}
node {
  name: "C_u/1/l2_normalize/Rsqrt"
  op: "Rsqrt"
  input: "C_u/1/l2_normalize/Maximum"
  device: "/job:ps/task:0"
  attr {
    key: "T"
    value {
      type: DT_FLOAT
    }
  }
  attr {
    key: "_output_shapes"
    value {
      list {
        shape {
          dim {
            size: 1
          }
          dim {
            size: 80
          }
        }
      }
    }
  }
}
node {
  name: "C_u/1/l2_normalize"
  op: "Mul"
  input: "C_u/1/w/read"
  input: "C_u/1/l2_normalize/Rsqrt"
  device: "/job:ps/task:0"
  attr {
    key: "T"
    value {
      type: DT_FLOAT
    }
  }
  attr {
    key: "_output_shapes"
    value {
      list {
        shape {
          dim {
            size: 80
          }
          dim {
            size: 80
          }
        }
      }
    }
  }
}
node {
  name: "C_u/1/Tile/multiples"
  op: "Const"
  device: "/job:ps/task:0"
  attr {
    key: "_output_shapes"
    value {
      list {
        shape {
          dim {
            size: 2
          }
        }
      }
    }
  }
  attr {
    key: "dtype"
    value {
      type: DT_INT32
    }
  }
  attr {
    key: "value"
    value {
      tensor {
        dtype: DT_INT32
        tensor_shape {
          dim {
            size: 2
          }
        }
        tensor_content: "P\000\000\000\001\000\000\000"
      }
    }
  }
}
node {
  name: "C_u/1/Tile"
  op: "Tile"
  input: "C_u/1/g/read"
  input: "C_u/1/Tile/multiples"
  device: "/job:ps/task:0"
  attr {
    key: "T"
    value {
      type: DT_FLOAT
    }
  }
  attr {
    key: "Tmultiples"
    value {
      type: DT_INT32
    }
  }
  attr {
    key: "_output_shapes"
    value {
      list {
        shape {
          dim {
            size: 80
          }
          dim {
            size: 80
          }
        }
      }
    }
  }
}
node {
  name: "C_u/1/mul"
  op: "Mul"
  input: "C_u/1/l2_normalize"
  input: "C_u/1/Tile"
  device: "/job:ps/task:0"
  attr {
    key: "T"
    value {
      type: DT_FLOAT
    }
  }
  attr {
    key: "_output_shapes"
    value {
      list {
        shape {
          dim {
            size: 80
          }
          dim {
            size: 80
          }
        }
      }
    }
  }
}
node {
  name: "C_u/1/b/Initializer/zeros"
  op: "Const"
  attr {
    key: "_class"
    value {
      list {
        s: "loc:@C_u/1/b"
      }
    }
  }
  attr {
    key: "_output_shapes"
    value {
      list {
        shape {
          dim {
            size: 80
          }
        }
      }
    }
  }
  attr {
    key: "dtype"
    value {
      type: DT_FLOAT
    }
  }
  attr {
    key: "value"
    value {
      tensor {
        dtype: DT_FLOAT
        tensor_shape {
          dim {
            size: 80
          }
        }
        float_val: 0.0
      }
    }
  }
}
node {
  name: "C_u/1/b"
  op: "VariableV2"
  device: "/job:ps/task:0"
  attr {
    key: "_class"
    value {
      list {
        s: "loc:@C_u/1/b"
      }
    }
  }
  attr {
    key: "_output_shapes"
    value {
      list {
        shape {
          dim {
            size: 80
          }
        }
      }
    }
  }
  attr {
    key: "container"
    value {
      s: ""
    }
  }
  attr {
    key: "dtype"
    value {
      type: DT_FLOAT
    }
  }
  attr {
    key: "shape"
    value {
      shape {
        dim {
          size: 80
        }
      }
    }
  }
  attr {
    key: "shared_name"
    value {
      s: ""
    }
  }
}
node {
  name: "C_u/1/b/Assign"
  op: "Assign"
  input: "C_u/1/b"
  input: "C_u/1/b/Initializer/zeros"
  device: "/job:ps/task:0"
  attr {
    key: "T"
    value {
      type: DT_FLOAT
    }
  }
  attr {
    key: "_class"
    value {
      list {
        s: "loc:@C_u/1/b"
      }
    }
  }
  attr {
    key: "_output_shapes"
    value {
      list {
        shape {
          dim {
            size: 80
          }
        }
      }
    }
  }
  attr {
    key: "use_locking"
    value {
      b: true
    }
  }
  attr {
    key: "validate_shape"
    value {
      b: true
    }
  }
}
node {
  name: "C_u/1/b/read"
  op: "Identity"
  input: "C_u/1/b"
  device: "/job:ps/task:0"
  attr {
    key: "T"
    value {
      type: DT_FLOAT
    }
  }
  attr {
    key: "_class"
    value {
      list {
        s: "loc:@C_u/1/b"
      }
    }
  }
  attr {
    key: "_output_shapes"
    value {
      list {
        shape {
          dim {
            size: 80
          }
        }
      }
    }
  }
}
node {
  name: "L_init_scale/Initializer/Const"
  op: "Const"
  attr {
    key: "_class"
    value {
      list {
        s: "loc:@L_init_scale"
      }
    }
  }
  attr {
    key: "_output_shapes"
    value {
      list {
        shape {
        }
      }
    }
  }
  attr {
    key: "dtype"
    value {
      type: DT_FLOAT
    }
  }
  attr {
    key: "value"
    value {
      tensor {
        dtype: DT_FLOAT
        tensor_shape {
        }
        float_val: 0.11180339753627777
      }
    }
  }
}
node {
  name: "L_init_scale"
  op: "VariableV2"
  device: "/job:ps/task:0"
  attr {
    key: "_class"
    value {
      list {
        s: "loc:@L_init_scale"
      }
    }
  }
  attr {
    key: "_output_shapes"
    value {
      list {
        shape {
        }
      }
    }
  }
  attr {
    key: "container"
    value {
      s: ""
    }
  }
  attr {
    key: "dtype"
    value {
      type: DT_FLOAT
    }
  }
  attr {
    key: "shape"
    value {
      shape {
      }
    }
  }
  attr {
    key: "shared_name"
    value {
      s: ""
    }
  }
}
node {
  name: "L_init_scale/Assign"
  op: "Assign"
  input: "L_init_scale"
  input: "L_init_scale/Initializer/Const"
  device: "/job:ps/task:0"
  attr {
    key: "T"
    value {
      type: DT_FLOAT
    }
  }
  attr {
    key: "_class"
    value {
      list {
        s: "loc:@L_init_scale"
      }
    }
  }
  attr {
    key: "_output_shapes"
    value {
      list {
        shape {
        }
      }
    }
  }
  attr {
    key: "use_locking"
    value {
      b: true
    }
  }
  attr {
    key: "validate_shape"
    value {
      b: true
    }
  }
}
node {
  name: "L_init_scale/read"
  op: "Identity"
  input: "L_init_scale"
  device: "/job:ps/task:0"
  attr {
    key: "T"
    value {
      type: DT_FLOAT
    }
  }
  attr {
    key: "_class"
    value {
      list {
        s: "loc:@L_init_scale"
      }
    }
  }
  attr {
    key: "_output_shapes"
    value {
      list {
        shape {
        }
      }
    }
  }
}
node {
  name: "C_init_scale/Initializer/Const"
  op: "Const"
  attr {
    key: "_class"
    value {
      list {
        s: "loc:@C_init_scale"
      }
    }
  }
  attr {
    key: "_output_shapes"
    value {
      list {
        shape {
        }
      }
    }
  }
  attr {
    key: "dtype"
    value {
      type: DT_FLOAT
    }
  }
  attr {
    key: "value"
    value {
      tensor {
        dtype: DT_FLOAT
        tensor_shape {
        }
        float_val: 0.11180339753627777
      }
    }
  }
}
node {
  name: "C_init_scale"
  op: "VariableV2"
  device: "/job:ps/task:0"
  attr {
    key: "_class"
    value {
      list {
        s: "loc:@C_init_scale"
      }
    }
  }
  attr {
    key: "_output_shapes"
    value {
      list {
        shape {
        }
      }
    }
  }
  attr {
    key: "container"
    value {
      s: ""
    }
  }
  attr {
    key: "dtype"
    value {
      type: DT_FLOAT
    }
  }
  attr {
    key: "shape"
    value {
      shape {
      }
    }
  }
  attr {
    key: "shared_name"
    value {
      s: ""
    }
  }
}
node {
  name: "C_init_scale/Assign"
  op: "Assign"
  input: "C_init_scale"
  input: "C_init_scale/Initializer/Const"
  device: "/job:ps/task:0"
  attr {
    key: "T"
    value {
      type: DT_FLOAT
    }
  }
  attr {
    key: "_class"
    value {
      list {
        s: "loc:@C_init_scale"
      }
    }
  }
  attr {
    key: "_output_shapes"
    value {
      list {
        shape {
        }
      }
    }
  }
  attr {
    key: "use_locking"
    value {
      b: true
    }
  }
  attr {
    key: "validate_shape"
    value {
      b: true
    }
  }
}
node {
  name: "C_init_scale/read"
  op: "Identity"
  input: "C_init_scale"
  device: "/job:ps/task:0"
  attr {
    key: "T"
    value {
      type: DT_FLOAT
    }
  }
  attr {
    key: "_class"
    value {
      list {
        s: "loc:@C_init_scale"
      }
    }
  }
  attr {
    key: "_output_shapes"
    value {
      list {
        shape {
        }
      }
    }
  }
}
node {
  name: "LC_scale/Initializer/Const"
  op: "Const"
  attr {
    key: "_class"
    value {
      list {
        s: "loc:@LC_scale"
      }
    }
  }
  attr {
    key: "_output_shapes"
    value {
      list {
        shape {
        }
      }
    }
  }
  attr {
    key: "dtype"
    value {
      type: DT_FLOAT
    }
  }
  attr {
    key: "value"
    value {
      tensor {
        dtype: DT_FLOAT
        tensor_shape {
        }
        float_val: 0.10000000149011612
      }
    }
  }
}
node {
  name: "LC_scale"
  op: "VariableV2"
  device: "/job:ps/task:0"
  attr {
    key: "_class"
    value {
      list {
        s: "loc:@LC_scale"
      }
    }
  }
  attr {
    key: "_output_shapes"
    value {
      list {
        shape {
        }
      }
    }
  }
  attr {
    key: "container"
    value {
      s: ""
    }
  }
  attr {
    key: "dtype"
    value {
      type: DT_FLOAT
    }
  }
  attr {
    key: "shape"
    value {
      shape {
      }
    }
  }
  attr {
    key: "shared_name"
    value {
      s: ""
    }
  }
}
node {
  name: "LC_scale/Assign"
  op: "Assign"
  input: "LC_scale"
  input: "LC_scale/Initializer/Const"
  device: "/job:ps/task:0"
  attr {
    key: "T"
    value {
      type: DT_FLOAT
    }
  }
  attr {
    key: "_class"
    value {
      list {
        s: "loc:@LC_scale"
      }
    }
  }
  attr {
    key: "_output_shapes"
    value {
      list {
        shape {
        }
      }
    }
  }
  attr {
    key: "use_locking"
    value {
      b: true
    }
  }
  attr {
    key: "validate_shape"
    value {
      b: true
    }
  }
}
node {
  name: "LC_scale/read"
  op: "Identity"
  input: "LC_scale"
  device: "/job:ps/task:0"
  attr {
    key: "T"
    value {
      type: DT_FLOAT
    }
  }
  attr {
    key: "_class"
    value {
      list {
        s: "loc:@LC_scale"
      }
    }
  }
  attr {
    key: "_output_shapes"
    value {
      list {
        shape {
        }
      }
    }
  }
}
node {
  name: "CL_scale/Initializer/Const"
  op: "Const"
  attr {
    key: "_class"
    value {
      list {
        s: "loc:@CL_scale"
      }
    }
  }
  attr {
    key: "_output_shapes"
    value {
      list {
        shape {
        }
      }
    }
  }
  attr {
    key: "dtype"
    value {
      type: DT_FLOAT
    }
  }
  attr {
    key: "value"
    value {
      tensor {
        dtype: DT_FLOAT
        tensor_shape {
        }
        float_val: 0.10000000149011612
      }
    }
  }
}
node {
  name: "CL_scale"
  op: "VariableV2"
  device: "/job:ps/task:0"
  attr {
    key: "_class"
    value {
      list {
        s: "loc:@CL_scale"
      }
    }
  }
  attr {
    key: "_output_shapes"
    value {
      list {
        shape {
        }
      }
    }
  }
  attr {
    key: "container"
    value {
      s: ""
    }
  }
  attr {
    key: "dtype"
    value {
      type: DT_FLOAT
    }
  }
  attr {
    key: "shape"
    value {
      shape {
      }
    }
  }
  attr {
    key: "shared_name"
    value {
      s: ""
    }
  }
}
node {
  name: "CL_scale/Assign"
  op: "Assign"
  input: "CL_scale"
  input: "CL_scale/Initializer/Const"
  device: "/job:ps/task:0"
  attr {
    key: "T"
    value {
      type: DT_FLOAT
    }
  }
  attr {
    key: "_class"
    value {
      list {
        s: "loc:@CL_scale"
      }
    }
  }
  attr {
    key: "_output_shapes"
    value {
      list {
        shape {
        }
      }
    }
  }
  attr {
    key: "use_locking"
    value {
      b: true
    }
  }
  attr {
    key: "validate_shape"
    value {
      b: true
    }
  }
}
node {
  name: "CL_scale/read"
  op: "Identity"
  input: "CL_scale"
  device: "/job:ps/task:0"
  attr {
    key: "T"
    value {
      type: DT_FLOAT
    }
  }
  attr {
    key: "_class"
    value {
      list {
        s: "loc:@CL_scale"
      }
    }
  }
  attr {
    key: "_output_shapes"
    value {
      list {
        shape {
        }
      }
    }
  }
}
node {
  name: "V_score/0/w/Initializer/random_uniform/shape"
  op: "Const"
  attr {
    key: "_class"
    value {
      list {
        s: "loc:@V_score/0/w"
      }
    }
  }
  attr {
    key: "_output_shapes"
    value {
      list {
        shape {
          dim {
            size: 2
          }
        }
      }
    }
  }
  attr {
    key: "dtype"
    value {
      type: DT_INT32
    }
  }
  attr {
    key: "value"
    value {
      tensor {
        dtype: DT_INT32
        tensor_shape {
          dim {
            size: 2
          }
        }
        tensor_content: "\240\000\000\000P\000\000\000"
      }
    }
  }
}
node {
  name: "V_score/0/w/Initializer/random_uniform/min"
  op: "Const"
  attr {
    key: "_class"
    value {
      list {
        s: "loc:@V_score/0/w"
      }
    }
  }
  attr {
    key: "_output_shapes"
    value {
      list {
        shape {
        }
      }
    }
  }
  attr {
    key: "dtype"
    value {
      type: DT_FLOAT
    }
  }
  attr {
    key: "value"
    value {
      tensor {
        dtype: DT_FLOAT
        tensor_shape {
        }
        float_val: -0.15811388194561005
      }
    }
  }
}
node {
  name: "V_score/0/w/Initializer/random_uniform/max"
  op: "Const"
  attr {
    key: "_class"
    value {
      list {
        s: "loc:@V_score/0/w"
      }
    }
  }
  attr {
    key: "_output_shapes"
    value {
      list {
        shape {
        }
      }
    }
  }
  attr {
    key: "dtype"
    value {
      type: DT_FLOAT
    }
  }
  attr {
    key: "value"
    value {
      tensor {
        dtype: DT_FLOAT
        tensor_shape {
        }
        float_val: 0.15811388194561005
      }
    }
  }
}
node {
  name: "V_score/0/w/Initializer/random_uniform/RandomUniform"
  op: "RandomUniform"
  input: "V_score/0/w/Initializer/random_uniform/shape"
  attr {
    key: "T"
    value {
      type: DT_INT32
    }
  }
  attr {
    key: "_class"
    value {
      list {
        s: "loc:@V_score/0/w"
      }
    }
  }
  attr {
    key: "_output_shapes"
    value {
      list {
        shape {
          dim {
            size: 160
          }
          dim {
            size: 80
          }
        }
      }
    }
  }
  attr {
    key: "dtype"
    value {
      type: DT_FLOAT
    }
  }
  attr {
    key: "seed"
    value {
      i: 0
    }
  }
  attr {
    key: "seed2"
    value {
      i: 0
    }
  }
}
node {
  name: "V_score/0/w/Initializer/random_uniform/sub"
  op: "Sub"
  input: "V_score/0/w/Initializer/random_uniform/max"
  input: "V_score/0/w/Initializer/random_uniform/min"
  attr {
    key: "T"
    value {
      type: DT_FLOAT
    }
  }
  attr {
    key: "_class"
    value {
      list {
        s: "loc:@V_score/0/w"
      }
    }
  }
  attr {
    key: "_output_shapes"
    value {
      list {
        shape {
        }
      }
    }
  }
}
node {
  name: "V_score/0/w/Initializer/random_uniform/mul"
  op: "Mul"
  input: "V_score/0/w/Initializer/random_uniform/RandomUniform"
  input: "V_score/0/w/Initializer/random_uniform/sub"
  attr {
    key: "T"
    value {
      type: DT_FLOAT
    }
  }
  attr {
    key: "_class"
    value {
      list {
        s: "loc:@V_score/0/w"
      }
    }
  }
  attr {
    key: "_output_shapes"
    value {
      list {
        shape {
          dim {
            size: 160
          }
          dim {
            size: 80
          }
        }
      }
    }
  }
}
node {
  name: "V_score/0/w/Initializer/random_uniform"
  op: "Add"
  input: "V_score/0/w/Initializer/random_uniform/mul"
  input: "V_score/0/w/Initializer/random_uniform/min"
  attr {
    key: "T"
    value {
      type: DT_FLOAT
    }
  }
  attr {
    key: "_class"
    value {
      list {
        s: "loc:@V_score/0/w"
      }
    }
  }
  attr {
    key: "_output_shapes"
    value {
      list {
        shape {
          dim {
            size: 160
          }
          dim {
            size: 80
          }
        }
      }
    }
  }
}
node {
  name: "V_score/0/w"
  op: "VariableV2"
  device: "/job:ps/task:0"
  attr {
    key: "_class"
    value {
      list {
        s: "loc:@V_score/0/w"
      }
    }
  }
  attr {
    key: "_output_shapes"
    value {
      list {
        shape {
          dim {
            size: 160
          }
          dim {
            size: 80
          }
        }
      }
    }
  }
  attr {
    key: "container"
    value {
      s: ""
    }
  }
  attr {
    key: "dtype"
    value {
      type: DT_FLOAT
    }
  }
  attr {
    key: "shape"
    value {
      shape {
        dim {
          size: 160
        }
        dim {
          size: 80
        }
      }
    }
  }
  attr {
    key: "shared_name"
    value {
      s: ""
    }
  }
}
node {
  name: "V_score/0/w/Assign"
  op: "Assign"
  input: "V_score/0/w"
  input: "V_score/0/w/Initializer/random_uniform"
  device: "/job:ps/task:0"
  attr {
    key: "T"
    value {
      type: DT_FLOAT
    }
  }
  attr {
    key: "_class"
    value {
      list {
        s: "loc:@V_score/0/w"
      }
    }
  }
  attr {
    key: "_output_shapes"
    value {
      list {
        shape {
          dim {
            size: 160
          }
          dim {
            size: 80
          }
        }
      }
    }
  }
  attr {
    key: "use_locking"
    value {
      b: true
    }
  }
  attr {
    key: "validate_shape"
    value {
      b: true
    }
  }
}
node {
  name: "V_score/0/w/read"
  op: "Identity"
  input: "V_score/0/w"
  device: "/job:ps/task:0"
  attr {
    key: "T"
    value {
      type: DT_FLOAT
    }
  }
  attr {
    key: "_class"
    value {
      list {
        s: "loc:@V_score/0/w"
      }
    }
  }
  attr {
    key: "_output_shapes"
    value {
      list {
        shape {
          dim {
            size: 160
          }
          dim {
            size: 80
          }
        }
      }
    }
  }
}
node {
  name: "V_score/0/g/Initializer/ones"
  op: "Const"
  attr {
    key: "_class"
    value {
      list {
        s: "loc:@V_score/0/g"
      }
    }
  }
  attr {
    key: "_output_shapes"
    value {
      list {
        shape {
          dim {
            size: 1
          }
          dim {
            size: 80
          }
        }
      }
    }
  }
  attr {
    key: "dtype"
    value {
      type: DT_FLOAT
    }
  }
  attr {
    key: "value"
    value {
      tensor {
        dtype: DT_FLOAT
        tensor_shape {
          dim {
            size: 1
          }
          dim {
            size: 80
          }
        }
        float_val: 1.0
      }
    }
  }
}
node {
  name: "V_score/0/g"
  op: "VariableV2"
  device: "/job:ps/task:0"
  attr {
    key: "_class"
    value {
      list {
        s: "loc:@V_score/0/g"
      }
    }
  }
  attr {
    key: "_output_shapes"
    value {
      list {
        shape {
          dim {
            size: 1
          }
          dim {
            size: 80
          }
        }
      }
    }
  }
  attr {
    key: "container"
    value {
      s: ""
    }
  }
  attr {
    key: "dtype"
    value {
      type: DT_FLOAT
    }
  }
  attr {
    key: "shape"
    value {
      shape {
        dim {
          size: 1
        }
        dim {
          size: 80
        }
      }
    }
  }
  attr {
    key: "shared_name"
    value {
      s: ""
    }
  }
}
node {
  name: "V_score/0/g/Assign"
  op: "Assign"
  input: "V_score/0/g"
  input: "V_score/0/g/Initializer/ones"
  device: "/job:ps/task:0"
  attr {
    key: "T"
    value {
      type: DT_FLOAT
    }
  }
  attr {
    key: "_class"
    value {
      list {
        s: "loc:@V_score/0/g"
      }
    }
  }
  attr {
    key: "_output_shapes"
    value {
      list {
        shape {
          dim {
            size: 1
          }
          dim {
            size: 80
          }
        }
      }
    }
  }
  attr {
    key: "use_locking"
    value {
      b: true
    }
  }
  attr {
    key: "validate_shape"
    value {
      b: true
    }
  }
}
node {
  name: "V_score/0/g/read"
  op: "Identity"
  input: "V_score/0/g"
  device: "/job:ps/task:0"
  attr {
    key: "T"
    value {
      type: DT_FLOAT
    }
  }
  attr {
    key: "_class"
    value {
      list {
        s: "loc:@V_score/0/g"
      }
    }
  }
  attr {
    key: "_output_shapes"
    value {
      list {
        shape {
          dim {
            size: 1
          }
          dim {
            size: 80
          }
        }
      }
    }
  }
}
node {
  name: "V_score/0/l2_normalize/Square"
  op: "Square"
  input: "V_score/0/w/read"
  device: "/job:ps/task:0"
  attr {
    key: "T"
    value {
      type: DT_FLOAT
    }
  }
  attr {
    key: "_output_shapes"
    value {
      list {
        shape {
          dim {
            size: 160
          }
          dim {
            size: 80
          }
        }
      }
    }
  }
}
node {
  name: "V_score/0/l2_normalize/Sum/reduction_indices"
  op: "Const"
  device: "/job:ps/task:0"
  attr {
    key: "_output_shapes"
    value {
      list {
        shape {
        }
      }
    }
  }
  attr {
    key: "dtype"
    value {
      type: DT_INT32
    }
  }
  attr {
    key: "value"
    value {
      tensor {
        dtype: DT_INT32
        tensor_shape {
        }
        int_val: 0
      }
    }
  }
}
node {
  name: "V_score/0/l2_normalize/Sum"
  op: "Sum"
  input: "V_score/0/l2_normalize/Square"
  input: "V_score/0/l2_normalize/Sum/reduction_indices"
  device: "/job:ps/task:0"
  attr {
    key: "T"
    value {
      type: DT_FLOAT
    }
  }
  attr {
    key: "Tidx"
    value {
      type: DT_INT32
    }
  }
  attr {
    key: "_output_shapes"
    value {
      list {
        shape {
          dim {
            size: 1
          }
          dim {
            size: 80
          }
        }
      }
    }
  }
  attr {
    key: "keep_dims"
    value {
      b: true
    }
  }
}
node {
  name: "V_score/0/l2_normalize/Maximum/y"
  op: "Const"
  device: "/job:ps/task:0"
  attr {
    key: "_output_shapes"
    value {
      list {
        shape {
        }
      }
    }
  }
  attr {
    key: "dtype"
    value {
      type: DT_FLOAT
    }
  }
  attr {
    key: "value"
    value {
      tensor {
        dtype: DT_FLOAT
        tensor_shape {
        }
        float_val: 9.999999960041972e-13
      }
    }
  }
}
node {
  name: "V_score/0/l2_normalize/Maximum"
  op: "Maximum"
  input: "V_score/0/l2_normalize/Sum"
  input: "V_score/0/l2_normalize/Maximum/y"
  device: "/job:ps/task:0"
  attr {
    key: "T"
    value {
      type: DT_FLOAT
    }
  }
  attr {
    key: "_output_shapes"
    value {
      list {
        shape {
          dim {
            size: 1
          }
          dim {
            size: 80
          }
        }
      }
    }
  }
}
node {
  name: "V_score/0/l2_normalize/Rsqrt"
  op: "Rsqrt"
  input: "V_score/0/l2_normalize/Maximum"
  device: "/job:ps/task:0"
  attr {
    key: "T"
    value {
      type: DT_FLOAT
    }
  }
  attr {
    key: "_output_shapes"
    value {
      list {
        shape {
          dim {
            size: 1
          }
          dim {
            size: 80
          }
        }
      }
    }
  }
}
node {
  name: "V_score/0/l2_normalize"
  op: "Mul"
  input: "V_score/0/w/read"
  input: "V_score/0/l2_normalize/Rsqrt"
  device: "/job:ps/task:0"
  attr {
    key: "T"
    value {
      type: DT_FLOAT
    }
  }
  attr {
    key: "_output_shapes"
    value {
      list {
        shape {
          dim {
            size: 160
          }
          dim {
            size: 80
          }
        }
      }
    }
  }
}
node {
  name: "V_score/0/Tile/multiples"
  op: "Const"
  device: "/job:ps/task:0"
  attr {
    key: "_output_shapes"
    value {
      list {
        shape {
          dim {
            size: 2
          }
        }
      }
    }
  }
  attr {
    key: "dtype"
    value {
      type: DT_INT32
    }
  }
  attr {
    key: "value"
    value {
      tensor {
        dtype: DT_INT32
        tensor_shape {
          dim {
            size: 2
          }
        }
        tensor_content: "\240\000\000\000\001\000\000\000"
      }
    }
  }
}
node {
  name: "V_score/0/Tile"
  op: "Tile"
  input: "V_score/0/g/read"
  input: "V_score/0/Tile/multiples"
  device: "/job:ps/task:0"
  attr {
    key: "T"
    value {
      type: DT_FLOAT
    }
  }
  attr {
    key: "Tmultiples"
    value {
      type: DT_INT32
    }
  }
  attr {
    key: "_output_shapes"
    value {
      list {
        shape {
          dim {
            size: 160
          }
          dim {
            size: 80
          }
        }
      }
    }
  }
}
node {
  name: "V_score/0/mul"
  op: "Mul"
  input: "V_score/0/l2_normalize"
  input: "V_score/0/Tile"
  device: "/job:ps/task:0"
  attr {
    key: "T"
    value {
      type: DT_FLOAT
    }
  }
  attr {
    key: "_output_shapes"
    value {
      list {
        shape {
          dim {
            size: 160
          }
          dim {
            size: 80
          }
        }
      }
    }
  }
}
node {
  name: "V_score/0/b/Initializer/zeros"
  op: "Const"
  attr {
    key: "_class"
    value {
      list {
        s: "loc:@V_score/0/b"
      }
    }
  }
  attr {
    key: "_output_shapes"
    value {
      list {
        shape {
          dim {
            size: 80
          }
        }
      }
    }
  }
  attr {
    key: "dtype"
    value {
      type: DT_FLOAT
    }
  }
  attr {
    key: "value"
    value {
      tensor {
        dtype: DT_FLOAT
        tensor_shape {
          dim {
            size: 80
          }
        }
        float_val: 0.0
      }
    }
  }
}
node {
  name: "V_score/0/b"
  op: "VariableV2"
  device: "/job:ps/task:0"
  attr {
    key: "_class"
    value {
      list {
        s: "loc:@V_score/0/b"
      }
    }
  }
  attr {
    key: "_output_shapes"
    value {
      list {
        shape {
          dim {
            size: 80
          }
        }
      }
    }
  }
  attr {
    key: "container"
    value {
      s: ""
    }
  }
  attr {
    key: "dtype"
    value {
      type: DT_FLOAT
    }
  }
  attr {
    key: "shape"
    value {
      shape {
        dim {
          size: 80
        }
      }
    }
  }
  attr {
    key: "shared_name"
    value {
      s: ""
    }
  }
}
node {
  name: "V_score/0/b/Assign"
  op: "Assign"
  input: "V_score/0/b"
  input: "V_score/0/b/Initializer/zeros"
  device: "/job:ps/task:0"
  attr {
    key: "T"
    value {
      type: DT_FLOAT
    }
  }
  attr {
    key: "_class"
    value {
      list {
        s: "loc:@V_score/0/b"
      }
    }
  }
  attr {
    key: "_output_shapes"
    value {
      list {
        shape {
          dim {
            size: 80
          }
        }
      }
    }
  }
  attr {
    key: "use_locking"
    value {
      b: true
    }
  }
  attr {
    key: "validate_shape"
    value {
      b: true
    }
  }
}
node {
  name: "V_score/0/b/read"
  op: "Identity"
  input: "V_score/0/b"
  device: "/job:ps/task:0"
  attr {
    key: "T"
    value {
      type: DT_FLOAT
    }
  }
  attr {
    key: "_class"
    value {
      list {
        s: "loc:@V_score/0/b"
      }
    }
  }
  attr {
    key: "_output_shapes"
    value {
      list {
        shape {
          dim {
            size: 80
          }
        }
      }
    }
  }
}
node {
  name: "V_score/1/w/Initializer/random_uniform/shape"
  op: "Const"
  attr {
    key: "_class"
    value {
      list {
        s: "loc:@V_score/1/w"
      }
    }
  }
  attr {
    key: "_output_shapes"
    value {
      list {
        shape {
          dim {
            size: 2
          }
        }
      }
    }
  }
  attr {
    key: "dtype"
    value {
      type: DT_INT32
    }
  }
  attr {
    key: "value"
    value {
      tensor {
        dtype: DT_INT32
        tensor_shape {
          dim {
            size: 2
          }
        }
        tensor_content: "P\000\000\000P\000\000\000"
      }
    }
  }
}
node {
  name: "V_score/1/w/Initializer/random_uniform/min"
  op: "Const"
  attr {
    key: "_class"
    value {
      list {
        s: "loc:@V_score/1/w"
      }
    }
  }
  attr {
    key: "_output_shapes"
    value {
      list {
        shape {
        }
      }
    }
  }
  attr {
    key: "dtype"
    value {
      type: DT_FLOAT
    }
  }
  attr {
    key: "value"
    value {
      tensor {
        dtype: DT_FLOAT
        tensor_shape {
        }
        float_val: -0.19364917278289795
      }
    }
  }
}
node {
  name: "V_score/1/w/Initializer/random_uniform/max"
  op: "Const"
  attr {
    key: "_class"
    value {
      list {
        s: "loc:@V_score/1/w"
      }
    }
  }
  attr {
    key: "_output_shapes"
    value {
      list {
        shape {
        }
      }
    }
  }
  attr {
    key: "dtype"
    value {
      type: DT_FLOAT
    }
  }
  attr {
    key: "value"
    value {
      tensor {
        dtype: DT_FLOAT
        tensor_shape {
        }
        float_val: 0.19364917278289795
      }
    }
  }
}
node {
  name: "V_score/1/w/Initializer/random_uniform/RandomUniform"
  op: "RandomUniform"
  input: "V_score/1/w/Initializer/random_uniform/shape"
  attr {
    key: "T"
    value {
      type: DT_INT32
    }
  }
  attr {
    key: "_class"
    value {
      list {
        s: "loc:@V_score/1/w"
      }
    }
  }
  attr {
    key: "_output_shapes"
    value {
      list {
        shape {
          dim {
            size: 80
          }
          dim {
            size: 80
          }
        }
      }
    }
  }
  attr {
    key: "dtype"
    value {
      type: DT_FLOAT
    }
  }
  attr {
    key: "seed"
    value {
      i: 0
    }
  }
  attr {
    key: "seed2"
    value {
      i: 0
    }
  }
}
node {
  name: "V_score/1/w/Initializer/random_uniform/sub"
  op: "Sub"
  input: "V_score/1/w/Initializer/random_uniform/max"
  input: "V_score/1/w/Initializer/random_uniform/min"
  attr {
    key: "T"
    value {
      type: DT_FLOAT
    }
  }
  attr {
    key: "_class"
    value {
      list {
        s: "loc:@V_score/1/w"
      }
    }
  }
  attr {
    key: "_output_shapes"
    value {
      list {
        shape {
        }
      }
    }
  }
}
node {
  name: "V_score/1/w/Initializer/random_uniform/mul"
  op: "Mul"
  input: "V_score/1/w/Initializer/random_uniform/RandomUniform"
  input: "V_score/1/w/Initializer/random_uniform/sub"
  attr {
    key: "T"
    value {
      type: DT_FLOAT
    }
  }
  attr {
    key: "_class"
    value {
      list {
        s: "loc:@V_score/1/w"
      }
    }
  }
  attr {
    key: "_output_shapes"
    value {
      list {
        shape {
          dim {
            size: 80
          }
          dim {
            size: 80
          }
        }
      }
    }
  }
}
node {
  name: "V_score/1/w/Initializer/random_uniform"
  op: "Add"
  input: "V_score/1/w/Initializer/random_uniform/mul"
  input: "V_score/1/w/Initializer/random_uniform/min"
  attr {
    key: "T"
    value {
      type: DT_FLOAT
    }
  }
  attr {
    key: "_class"
    value {
      list {
        s: "loc:@V_score/1/w"
      }
    }
  }
  attr {
    key: "_output_shapes"
    value {
      list {
        shape {
          dim {
            size: 80
          }
          dim {
            size: 80
          }
        }
      }
    }
  }
}
node {
  name: "V_score/1/w"
  op: "VariableV2"
  device: "/job:ps/task:0"
  attr {
    key: "_class"
    value {
      list {
        s: "loc:@V_score/1/w"
      }
    }
  }
  attr {
    key: "_output_shapes"
    value {
      list {
        shape {
          dim {
            size: 80
          }
          dim {
            size: 80
          }
        }
      }
    }
  }
  attr {
    key: "container"
    value {
      s: ""
    }
  }
  attr {
    key: "dtype"
    value {
      type: DT_FLOAT
    }
  }
  attr {
    key: "shape"
    value {
      shape {
        dim {
          size: 80
        }
        dim {
          size: 80
        }
      }
    }
  }
  attr {
    key: "shared_name"
    value {
      s: ""
    }
  }
}
node {
  name: "V_score/1/w/Assign"
  op: "Assign"
  input: "V_score/1/w"
  input: "V_score/1/w/Initializer/random_uniform"
  device: "/job:ps/task:0"
  attr {
    key: "T"
    value {
      type: DT_FLOAT
    }
  }
  attr {
    key: "_class"
    value {
      list {
        s: "loc:@V_score/1/w"
      }
    }
  }
  attr {
    key: "_output_shapes"
    value {
      list {
        shape {
          dim {
            size: 80
          }
          dim {
            size: 80
          }
        }
      }
    }
  }
  attr {
    key: "use_locking"
    value {
      b: true
    }
  }
  attr {
    key: "validate_shape"
    value {
      b: true
    }
  }
}
node {
  name: "V_score/1/w/read"
  op: "Identity"
  input: "V_score/1/w"
  device: "/job:ps/task:0"
  attr {
    key: "T"
    value {
      type: DT_FLOAT
    }
  }
  attr {
    key: "_class"
    value {
      list {
        s: "loc:@V_score/1/w"
      }
    }
  }
  attr {
    key: "_output_shapes"
    value {
      list {
        shape {
          dim {
            size: 80
          }
          dim {
            size: 80
          }
        }
      }
    }
  }
}
node {
  name: "V_score/1/g/Initializer/ones"
  op: "Const"
  attr {
    key: "_class"
    value {
      list {
        s: "loc:@V_score/1/g"
      }
    }
  }
  attr {
    key: "_output_shapes"
    value {
      list {
        shape {
          dim {
            size: 1
          }
          dim {
            size: 80
          }
        }
      }
    }
  }
  attr {
    key: "dtype"
    value {
      type: DT_FLOAT
    }
  }
  attr {
    key: "value"
    value {
      tensor {
        dtype: DT_FLOAT
        tensor_shape {
          dim {
            size: 1
          }
          dim {
            size: 80
          }
        }
        float_val: 1.0
      }
    }
  }
}
node {
  name: "V_score/1/g"
  op: "VariableV2"
  device: "/job:ps/task:0"
  attr {
    key: "_class"
    value {
      list {
        s: "loc:@V_score/1/g"
      }
    }
  }
  attr {
    key: "_output_shapes"
    value {
      list {
        shape {
          dim {
            size: 1
          }
          dim {
            size: 80
          }
        }
      }
    }
  }
  attr {
    key: "container"
    value {
      s: ""
    }
  }
  attr {
    key: "dtype"
    value {
      type: DT_FLOAT
    }
  }
  attr {
    key: "shape"
    value {
      shape {
        dim {
          size: 1
        }
        dim {
          size: 80
        }
      }
    }
  }
  attr {
    key: "shared_name"
    value {
      s: ""
    }
  }
}
node {
  name: "V_score/1/g/Assign"
  op: "Assign"
  input: "V_score/1/g"
  input: "V_score/1/g/Initializer/ones"
  device: "/job:ps/task:0"
  attr {
    key: "T"
    value {
      type: DT_FLOAT
    }
  }
  attr {
    key: "_class"
    value {
      list {
        s: "loc:@V_score/1/g"
      }
    }
  }
  attr {
    key: "_output_shapes"
    value {
      list {
        shape {
          dim {
            size: 1
          }
          dim {
            size: 80
          }
        }
      }
    }
  }
  attr {
    key: "use_locking"
    value {
      b: true
    }
  }
  attr {
    key: "validate_shape"
    value {
      b: true
    }
  }
}
node {
  name: "V_score/1/g/read"
  op: "Identity"
  input: "V_score/1/g"
  device: "/job:ps/task:0"
  attr {
    key: "T"
    value {
      type: DT_FLOAT
    }
  }
  attr {
    key: "_class"
    value {
      list {
        s: "loc:@V_score/1/g"
      }
    }
  }
  attr {
    key: "_output_shapes"
    value {
      list {
        shape {
          dim {
            size: 1
          }
          dim {
            size: 80
          }
        }
      }
    }
  }
}
node {
  name: "V_score/1/l2_normalize/Square"
  op: "Square"
  input: "V_score/1/w/read"
  device: "/job:ps/task:0"
  attr {
    key: "T"
    value {
      type: DT_FLOAT
    }
  }
  attr {
    key: "_output_shapes"
    value {
      list {
        shape {
          dim {
            size: 80
          }
          dim {
            size: 80
          }
        }
      }
    }
  }
}
node {
  name: "V_score/1/l2_normalize/Sum/reduction_indices"
  op: "Const"
  device: "/job:ps/task:0"
  attr {
    key: "_output_shapes"
    value {
      list {
        shape {
        }
      }
    }
  }
  attr {
    key: "dtype"
    value {
      type: DT_INT32
    }
  }
  attr {
    key: "value"
    value {
      tensor {
        dtype: DT_INT32
        tensor_shape {
        }
        int_val: 0
      }
    }
  }
}
node {
  name: "V_score/1/l2_normalize/Sum"
  op: "Sum"
  input: "V_score/1/l2_normalize/Square"
  input: "V_score/1/l2_normalize/Sum/reduction_indices"
  device: "/job:ps/task:0"
  attr {
    key: "T"
    value {
      type: DT_FLOAT
    }
  }
  attr {
    key: "Tidx"
    value {
      type: DT_INT32
    }
  }
  attr {
    key: "_output_shapes"
    value {
      list {
        shape {
          dim {
            size: 1
          }
          dim {
            size: 80
          }
        }
      }
    }
  }
  attr {
    key: "keep_dims"
    value {
      b: true
    }
  }
}
node {
  name: "V_score/1/l2_normalize/Maximum/y"
  op: "Const"
  device: "/job:ps/task:0"
  attr {
    key: "_output_shapes"
    value {
      list {
        shape {
        }
      }
    }
  }
  attr {
    key: "dtype"
    value {
      type: DT_FLOAT
    }
  }
  attr {
    key: "value"
    value {
      tensor {
        dtype: DT_FLOAT
        tensor_shape {
        }
        float_val: 9.999999960041972e-13
      }
    }
  }
}
node {
  name: "V_score/1/l2_normalize/Maximum"
  op: "Maximum"
  input: "V_score/1/l2_normalize/Sum"
  input: "V_score/1/l2_normalize/Maximum/y"
  device: "/job:ps/task:0"
  attr {
    key: "T"
    value {
      type: DT_FLOAT
    }
  }
  attr {
    key: "_output_shapes"
    value {
      list {
        shape {
          dim {
            size: 1
          }
          dim {
            size: 80
          }
        }
      }
    }
  }
}
node {
  name: "V_score/1/l2_normalize/Rsqrt"
  op: "Rsqrt"
  input: "V_score/1/l2_normalize/Maximum"
  device: "/job:ps/task:0"
  attr {
    key: "T"
    value {
      type: DT_FLOAT
    }
  }
  attr {
    key: "_output_shapes"
    value {
      list {
        shape {
          dim {
            size: 1
          }
          dim {
            size: 80
          }
        }
      }
    }
  }
}
node {
  name: "V_score/1/l2_normalize"
  op: "Mul"
  input: "V_score/1/w/read"
  input: "V_score/1/l2_normalize/Rsqrt"
  device: "/job:ps/task:0"
  attr {
    key: "T"
    value {
      type: DT_FLOAT
    }
  }
  attr {
    key: "_output_shapes"
    value {
      list {
        shape {
          dim {
            size: 80
          }
          dim {
            size: 80
          }
        }
      }
    }
  }
}
node {
  name: "V_score/1/Tile/multiples"
  op: "Const"
  device: "/job:ps/task:0"
  attr {
    key: "_output_shapes"
    value {
      list {
        shape {
          dim {
            size: 2
          }
        }
      }
    }
  }
  attr {
    key: "dtype"
    value {
      type: DT_INT32
    }
  }
  attr {
    key: "value"
    value {
      tensor {
        dtype: DT_INT32
        tensor_shape {
          dim {
            size: 2
          }
        }
        tensor_content: "P\000\000\000\001\000\000\000"
      }
    }
  }
}
node {
  name: "V_score/1/Tile"
  op: "Tile"
  input: "V_score/1/g/read"
  input: "V_score/1/Tile/multiples"
  device: "/job:ps/task:0"
  attr {
    key: "T"
    value {
      type: DT_FLOAT
    }
  }
  attr {
    key: "Tmultiples"
    value {
      type: DT_INT32
    }
  }
  attr {
    key: "_output_shapes"
    value {
      list {
        shape {
          dim {
            size: 80
          }
          dim {
            size: 80
          }
        }
      }
    }
  }
}
node {
  name: "V_score/1/mul"
  op: "Mul"
  input: "V_score/1/l2_normalize"
  input: "V_score/1/Tile"
  device: "/job:ps/task:0"
  attr {
    key: "T"
    value {
      type: DT_FLOAT
    }
  }
  attr {
    key: "_output_shapes"
    value {
      list {
        shape {
          dim {
            size: 80
          }
          dim {
            size: 80
          }
        }
      }
    }
  }
}
node {
  name: "V_score/1/b/Initializer/zeros"
  op: "Const"
  attr {
    key: "_class"
    value {
      list {
        s: "loc:@V_score/1/b"
      }
    }
  }
  attr {
    key: "_output_shapes"
    value {
      list {
        shape {
          dim {
            size: 80
          }
        }
      }
    }
  }
  attr {
    key: "dtype"
    value {
      type: DT_FLOAT
    }
  }
  attr {
    key: "value"
    value {
      tensor {
        dtype: DT_FLOAT
        tensor_shape {
          dim {
            size: 80
          }
        }
        float_val: 0.0
      }
    }
  }
}
node {
  name: "V_score/1/b"
  op: "VariableV2"
  device: "/job:ps/task:0"
  attr {
    key: "_class"
    value {
      list {
        s: "loc:@V_score/1/b"
      }
    }
  }
  attr {
    key: "_output_shapes"
    value {
      list {
        shape {
          dim {
            size: 80
          }
        }
      }
    }
  }
  attr {
    key: "container"
    value {
      s: ""
    }
  }
  attr {
    key: "dtype"
    value {
      type: DT_FLOAT
    }
  }
  attr {
    key: "shape"
    value {
      shape {
        dim {
          size: 80
        }
      }
    }
  }
  attr {
    key: "shared_name"
    value {
      s: ""
    }
  }
}
node {
  name: "V_score/1/b/Assign"
  op: "Assign"
  input: "V_score/1/b"
  input: "V_score/1/b/Initializer/zeros"
  device: "/job:ps/task:0"
  attr {
    key: "T"
    value {
      type: DT_FLOAT
    }
  }
  attr {
    key: "_class"
    value {
      list {
        s: "loc:@V_score/1/b"
      }
    }
  }
  attr {
    key: "_output_shapes"
    value {
      list {
        shape {
          dim {
            size: 80
          }
        }
      }
    }
  }
  attr {
    key: "use_locking"
    value {
      b: true
    }
  }
  attr {
    key: "validate_shape"
    value {
      b: true
    }
  }
}
node {
  name: "V_score/1/b/read"
  op: "Identity"
  input: "V_score/1/b"
  device: "/job:ps/task:0"
  attr {
    key: "T"
    value {
      type: DT_FLOAT
    }
  }
  attr {
    key: "_class"
    value {
      list {
        s: "loc:@V_score/1/b"
      }
    }
  }
  attr {
    key: "_output_shapes"
    value {
      list {
        shape {
          dim {
            size: 80
          }
        }
      }
    }
  }
}
node {
  name: "V_score/2/w/Initializer/random_uniform/shape"
  op: "Const"
  attr {
    key: "_class"
    value {
      list {
        s: "loc:@V_score/2/w"
      }
    }
  }
  attr {
    key: "_output_shapes"
    value {
      list {
        shape {
          dim {
            size: 2
          }
        }
      }
    }
  }
  attr {
    key: "dtype"
    value {
      type: DT_INT32
    }
  }
  attr {
    key: "value"
    value {
      tensor {
        dtype: DT_INT32
        tensor_shape {
          dim {
            size: 2
          }
        }
        tensor_content: "P\000\000\000P\000\000\000"
      }
    }
  }
}
node {
  name: "V_score/2/w/Initializer/random_uniform/min"
  op: "Const"
  attr {
    key: "_class"
    value {
      list {
        s: "loc:@V_score/2/w"
      }
    }
  }
  attr {
    key: "_output_shapes"
    value {
      list {
        shape {
        }
      }
    }
  }
  attr {
    key: "dtype"
    value {
      type: DT_FLOAT
    }
  }
  attr {
    key: "value"
    value {
      tensor {
        dtype: DT_FLOAT
        tensor_shape {
        }
        float_val: -0.19364917278289795
      }
    }
  }
}
node {
  name: "V_score/2/w/Initializer/random_uniform/max"
  op: "Const"
  attr {
    key: "_class"
    value {
      list {
        s: "loc:@V_score/2/w"
      }
    }
  }
  attr {
    key: "_output_shapes"
    value {
      list {
        shape {
        }
      }
    }
  }
  attr {
    key: "dtype"
    value {
      type: DT_FLOAT
    }
  }
  attr {
    key: "value"
    value {
      tensor {
        dtype: DT_FLOAT
        tensor_shape {
        }
        float_val: 0.19364917278289795
      }
    }
  }
}
node {
  name: "V_score/2/w/Initializer/random_uniform/RandomUniform"
  op: "RandomUniform"
  input: "V_score/2/w/Initializer/random_uniform/shape"
  attr {
    key: "T"
    value {
      type: DT_INT32
    }
  }
  attr {
    key: "_class"
    value {
      list {
        s: "loc:@V_score/2/w"
      }
    }
  }
  attr {
    key: "_output_shapes"
    value {
      list {
        shape {
          dim {
            size: 80
          }
          dim {
            size: 80
          }
        }
      }
    }
  }
  attr {
    key: "dtype"
    value {
      type: DT_FLOAT
    }
  }
  attr {
    key: "seed"
    value {
      i: 0
    }
  }
  attr {
    key: "seed2"
    value {
      i: 0
    }
  }
}
node {
  name: "V_score/2/w/Initializer/random_uniform/sub"
  op: "Sub"
  input: "V_score/2/w/Initializer/random_uniform/max"
  input: "V_score/2/w/Initializer/random_uniform/min"
  attr {
    key: "T"
    value {
      type: DT_FLOAT
    }
  }
  attr {
    key: "_class"
    value {
      list {
        s: "loc:@V_score/2/w"
      }
    }
  }
  attr {
    key: "_output_shapes"
    value {
      list {
        shape {
        }
      }
    }
  }
}
node {
  name: "V_score/2/w/Initializer/random_uniform/mul"
  op: "Mul"
  input: "V_score/2/w/Initializer/random_uniform/RandomUniform"
  input: "V_score/2/w/Initializer/random_uniform/sub"
  attr {
    key: "T"
    value {
      type: DT_FLOAT
    }
  }
  attr {
    key: "_class"
    value {
      list {
        s: "loc:@V_score/2/w"
      }
    }
  }
  attr {
    key: "_output_shapes"
    value {
      list {
        shape {
          dim {
            size: 80
          }
          dim {
            size: 80
          }
        }
      }
    }
  }
}
node {
  name: "V_score/2/w/Initializer/random_uniform"
  op: "Add"
  input: "V_score/2/w/Initializer/random_uniform/mul"
  input: "V_score/2/w/Initializer/random_uniform/min"
  attr {
    key: "T"
    value {
      type: DT_FLOAT
    }
  }
  attr {
    key: "_class"
    value {
      list {
        s: "loc:@V_score/2/w"
      }
    }
  }
  attr {
    key: "_output_shapes"
    value {
      list {
        shape {
          dim {
            size: 80
          }
          dim {
            size: 80
          }
        }
      }
    }
  }
}
node {
  name: "V_score/2/w"
  op: "VariableV2"
  device: "/job:ps/task:0"
  attr {
    key: "_class"
    value {
      list {
        s: "loc:@V_score/2/w"
      }
    }
  }
  attr {
    key: "_output_shapes"
    value {
      list {
        shape {
          dim {
            size: 80
          }
          dim {
            size: 80
          }
        }
      }
    }
  }
  attr {
    key: "container"
    value {
      s: ""
    }
  }
  attr {
    key: "dtype"
    value {
      type: DT_FLOAT
    }
  }
  attr {
    key: "shape"
    value {
      shape {
        dim {
          size: 80
        }
        dim {
          size: 80
        }
      }
    }
  }
  attr {
    key: "shared_name"
    value {
      s: ""
    }
  }
}
node {
  name: "V_score/2/w/Assign"
  op: "Assign"
  input: "V_score/2/w"
  input: "V_score/2/w/Initializer/random_uniform"
  device: "/job:ps/task:0"
  attr {
    key: "T"
    value {
      type: DT_FLOAT
    }
  }
  attr {
    key: "_class"
    value {
      list {
        s: "loc:@V_score/2/w"
      }
    }
  }
  attr {
    key: "_output_shapes"
    value {
      list {
        shape {
          dim {
            size: 80
          }
          dim {
            size: 80
          }
        }
      }
    }
  }
  attr {
    key: "use_locking"
    value {
      b: true
    }
  }
  attr {
    key: "validate_shape"
    value {
      b: true
    }
  }
}
node {
  name: "V_score/2/w/read"
  op: "Identity"
  input: "V_score/2/w"
  device: "/job:ps/task:0"
  attr {
    key: "T"
    value {
      type: DT_FLOAT
    }
  }
  attr {
    key: "_class"
    value {
      list {
        s: "loc:@V_score/2/w"
      }
    }
  }
  attr {
    key: "_output_shapes"
    value {
      list {
        shape {
          dim {
            size: 80
          }
          dim {
            size: 80
          }
        }
      }
    }
  }
}
node {
  name: "V_score/2/g/Initializer/ones"
  op: "Const"
  attr {
    key: "_class"
    value {
      list {
        s: "loc:@V_score/2/g"
      }
    }
  }
  attr {
    key: "_output_shapes"
    value {
      list {
        shape {
          dim {
            size: 1
          }
          dim {
            size: 80
          }
        }
      }
    }
  }
  attr {
    key: "dtype"
    value {
      type: DT_FLOAT
    }
  }
  attr {
    key: "value"
    value {
      tensor {
        dtype: DT_FLOAT
        tensor_shape {
          dim {
            size: 1
          }
          dim {
            size: 80
          }
        }
        float_val: 1.0
      }
    }
  }
}
node {
  name: "V_score/2/g"
  op: "VariableV2"
  device: "/job:ps/task:0"
  attr {
    key: "_class"
    value {
      list {
        s: "loc:@V_score/2/g"
      }
    }
  }
  attr {
    key: "_output_shapes"
    value {
      list {
        shape {
          dim {
            size: 1
          }
          dim {
            size: 80
          }
        }
      }
    }
  }
  attr {
    key: "container"
    value {
      s: ""
    }
  }
  attr {
    key: "dtype"
    value {
      type: DT_FLOAT
    }
  }
  attr {
    key: "shape"
    value {
      shape {
        dim {
          size: 1
        }
        dim {
          size: 80
        }
      }
    }
  }
  attr {
    key: "shared_name"
    value {
      s: ""
    }
  }
}
node {
  name: "V_score/2/g/Assign"
  op: "Assign"
  input: "V_score/2/g"
  input: "V_score/2/g/Initializer/ones"
  device: "/job:ps/task:0"
  attr {
    key: "T"
    value {
      type: DT_FLOAT
    }
  }
  attr {
    key: "_class"
    value {
      list {
        s: "loc:@V_score/2/g"
      }
    }
  }
  attr {
    key: "_output_shapes"
    value {
      list {
        shape {
          dim {
            size: 1
          }
          dim {
            size: 80
          }
        }
      }
    }
  }
  attr {
    key: "use_locking"
    value {
      b: true
    }
  }
  attr {
    key: "validate_shape"
    value {
      b: true
    }
  }
}
node {
  name: "V_score/2/g/read"
  op: "Identity"
  input: "V_score/2/g"
  device: "/job:ps/task:0"
  attr {
    key: "T"
    value {
      type: DT_FLOAT
    }
  }
  attr {
    key: "_class"
    value {
      list {
        s: "loc:@V_score/2/g"
      }
    }
  }
  attr {
    key: "_output_shapes"
    value {
      list {
        shape {
          dim {
            size: 1
          }
          dim {
            size: 80
          }
        }
      }
    }
  }
}
node {
  name: "V_score/2/l2_normalize/Square"
  op: "Square"
  input: "V_score/2/w/read"
  device: "/job:ps/task:0"
  attr {
    key: "T"
    value {
      type: DT_FLOAT
    }
  }
  attr {
    key: "_output_shapes"
    value {
      list {
        shape {
          dim {
            size: 80
          }
          dim {
            size: 80
          }
        }
      }
    }
  }
}
node {
  name: "V_score/2/l2_normalize/Sum/reduction_indices"
  op: "Const"
  device: "/job:ps/task:0"
  attr {
    key: "_output_shapes"
    value {
      list {
        shape {
        }
      }
    }
  }
  attr {
    key: "dtype"
    value {
      type: DT_INT32
    }
  }
  attr {
    key: "value"
    value {
      tensor {
        dtype: DT_INT32
        tensor_shape {
        }
        int_val: 0
      }
    }
  }
}
node {
  name: "V_score/2/l2_normalize/Sum"
  op: "Sum"
  input: "V_score/2/l2_normalize/Square"
  input: "V_score/2/l2_normalize/Sum/reduction_indices"
  device: "/job:ps/task:0"
  attr {
    key: "T"
    value {
      type: DT_FLOAT
    }
  }
  attr {
    key: "Tidx"
    value {
      type: DT_INT32
    }
  }
  attr {
    key: "_output_shapes"
    value {
      list {
        shape {
          dim {
            size: 1
          }
          dim {
            size: 80
          }
        }
      }
    }
  }
  attr {
    key: "keep_dims"
    value {
      b: true
    }
  }
}
node {
  name: "V_score/2/l2_normalize/Maximum/y"
  op: "Const"
  device: "/job:ps/task:0"
  attr {
    key: "_output_shapes"
    value {
      list {
        shape {
        }
      }
    }
  }
  attr {
    key: "dtype"
    value {
      type: DT_FLOAT
    }
  }
  attr {
    key: "value"
    value {
      tensor {
        dtype: DT_FLOAT
        tensor_shape {
        }
        float_val: 9.999999960041972e-13
      }
    }
  }
}
node {
  name: "V_score/2/l2_normalize/Maximum"
  op: "Maximum"
  input: "V_score/2/l2_normalize/Sum"
  input: "V_score/2/l2_normalize/Maximum/y"
  device: "/job:ps/task:0"
  attr {
    key: "T"
    value {
      type: DT_FLOAT
    }
  }
  attr {
    key: "_output_shapes"
    value {
      list {
        shape {
          dim {
            size: 1
          }
          dim {
            size: 80
          }
        }
      }
    }
  }
}
node {
  name: "V_score/2/l2_normalize/Rsqrt"
  op: "Rsqrt"
  input: "V_score/2/l2_normalize/Maximum"
  device: "/job:ps/task:0"
  attr {
    key: "T"
    value {
      type: DT_FLOAT
    }
  }
  attr {
    key: "_output_shapes"
    value {
      list {
        shape {
          dim {
            size: 1
          }
          dim {
            size: 80
          }
        }
      }
    }
  }
}
node {
  name: "V_score/2/l2_normalize"
  op: "Mul"
  input: "V_score/2/w/read"
  input: "V_score/2/l2_normalize/Rsqrt"
  device: "/job:ps/task:0"
  attr {
    key: "T"
    value {
      type: DT_FLOAT
    }
  }
  attr {
    key: "_output_shapes"
    value {
      list {
        shape {
          dim {
            size: 80
          }
          dim {
            size: 80
          }
        }
      }
    }
  }
}
node {
  name: "V_score/2/Tile/multiples"
  op: "Const"
  device: "/job:ps/task:0"
  attr {
    key: "_output_shapes"
    value {
      list {
        shape {
          dim {
            size: 2
          }
        }
      }
    }
  }
  attr {
    key: "dtype"
    value {
      type: DT_INT32
    }
  }
  attr {
    key: "value"
    value {
      tensor {
        dtype: DT_INT32
        tensor_shape {
          dim {
            size: 2
          }
        }
        tensor_content: "P\000\000\000\001\000\000\000"
      }
    }
  }
}
node {
  name: "V_score/2/Tile"
  op: "Tile"
  input: "V_score/2/g/read"
  input: "V_score/2/Tile/multiples"
  device: "/job:ps/task:0"
  attr {
    key: "T"
    value {
      type: DT_FLOAT
    }
  }
  attr {
    key: "Tmultiples"
    value {
      type: DT_INT32
    }
  }
  attr {
    key: "_output_shapes"
    value {
      list {
        shape {
          dim {
            size: 80
          }
          dim {
            size: 80
          }
        }
      }
    }
  }
}
node {
  name: "V_score/2/mul"
  op: "Mul"
  input: "V_score/2/l2_normalize"
  input: "V_score/2/Tile"
  device: "/job:ps/task:0"
  attr {
    key: "T"
    value {
      type: DT_FLOAT
    }
  }
  attr {
    key: "_output_shapes"
    value {
      list {
        shape {
          dim {
            size: 80
          }
          dim {
            size: 80
          }
        }
      }
    }
  }
}
node {
  name: "V_score/2/b/Initializer/zeros"
  op: "Const"
  attr {
    key: "_class"
    value {
      list {
        s: "loc:@V_score/2/b"
      }
    }
  }
  attr {
    key: "_output_shapes"
    value {
      list {
        shape {
          dim {
            size: 80
          }
        }
      }
    }
  }
  attr {
    key: "dtype"
    value {
      type: DT_FLOAT
    }
  }
  attr {
    key: "value"
    value {
      tensor {
        dtype: DT_FLOAT
        tensor_shape {
          dim {
            size: 80
          }
        }
        float_val: 0.0
      }
    }
  }
}
node {
  name: "V_score/2/b"
  op: "VariableV2"
  device: "/job:ps/task:0"
  attr {
    key: "_class"
    value {
      list {
        s: "loc:@V_score/2/b"
      }
    }
  }
  attr {
    key: "_output_shapes"
    value {
      list {
        shape {
          dim {
            size: 80
          }
        }
      }
    }
  }
  attr {
    key: "container"
    value {
      s: ""
    }
  }
  attr {
    key: "dtype"
    value {
      type: DT_FLOAT
    }
  }
  attr {
    key: "shape"
    value {
      shape {
        dim {
          size: 80
        }
      }
    }
  }
  attr {
    key: "shared_name"
    value {
      s: ""
    }
  }
}
node {
  name: "V_score/2/b/Assign"
  op: "Assign"
  input: "V_score/2/b"
  input: "V_score/2/b/Initializer/zeros"
  device: "/job:ps/task:0"
  attr {
    key: "T"
    value {
      type: DT_FLOAT
    }
  }
  attr {
    key: "_class"
    value {
      list {
        s: "loc:@V_score/2/b"
      }
    }
  }
  attr {
    key: "_output_shapes"
    value {
      list {
        shape {
          dim {
            size: 80
          }
        }
      }
    }
  }
  attr {
    key: "use_locking"
    value {
      b: true
    }
  }
  attr {
    key: "validate_shape"
    value {
      b: true
    }
  }
}
node {
  name: "V_score/2/b/read"
  op: "Identity"
  input: "V_score/2/b"
  device: "/job:ps/task:0"
  attr {
    key: "T"
    value {
      type: DT_FLOAT
    }
  }
  attr {
    key: "_class"
    value {
      list {
        s: "loc:@V_score/2/b"
      }
    }
  }
  attr {
    key: "_output_shapes"
    value {
      list {
        shape {
          dim {
            size: 80
          }
        }
      }
    }
  }
}
node {
  name: "V_score/3/w/Initializer/random_uniform/shape"
  op: "Const"
  attr {
    key: "_class"
    value {
      list {
        s: "loc:@V_score/3/w"
      }
    }
  }
  attr {
    key: "_output_shapes"
    value {
      list {
        shape {
          dim {
            size: 2
          }
        }
      }
    }
  }
  attr {
    key: "dtype"
    value {
      type: DT_INT32
    }
  }
  attr {
    key: "value"
    value {
      tensor {
        dtype: DT_INT32
        tensor_shape {
          dim {
            size: 2
          }
        }
        tensor_content: "P\000\000\000\001\000\000\000"
      }
    }
  }
}
node {
  name: "V_score/3/w/Initializer/random_uniform/min"
  op: "Const"
  attr {
    key: "_class"
    value {
      list {
        s: "loc:@V_score/3/w"
      }
    }
  }
  attr {
    key: "_output_shapes"
    value {
      list {
        shape {
        }
      }
    }
  }
  attr {
    key: "dtype"
    value {
      type: DT_FLOAT
    }
  }
  attr {
    key: "value"
    value {
      tensor {
        dtype: DT_FLOAT
        tensor_shape {
        }
        float_val: -0.27216553688049316
      }
    }
  }
}
node {
  name: "V_score/3/w/Initializer/random_uniform/max"
  op: "Const"
  attr {
    key: "_class"
    value {
      list {
        s: "loc:@V_score/3/w"
      }
    }
  }
  attr {
    key: "_output_shapes"
    value {
      list {
        shape {
        }
      }
    }
  }
  attr {
    key: "dtype"
    value {
      type: DT_FLOAT
    }
  }
  attr {
    key: "value"
    value {
      tensor {
        dtype: DT_FLOAT
        tensor_shape {
        }
        float_val: 0.27216553688049316
      }
    }
  }
}
node {
  name: "V_score/3/w/Initializer/random_uniform/RandomUniform"
  op: "RandomUniform"
  input: "V_score/3/w/Initializer/random_uniform/shape"
  attr {
    key: "T"
    value {
      type: DT_INT32
    }
  }
  attr {
    key: "_class"
    value {
      list {
        s: "loc:@V_score/3/w"
      }
    }
  }
  attr {
    key: "_output_shapes"
    value {
      list {
        shape {
          dim {
            size: 80
          }
          dim {
            size: 1
          }
        }
      }
    }
  }
  attr {
    key: "dtype"
    value {
      type: DT_FLOAT
    }
  }
  attr {
    key: "seed"
    value {
      i: 0
    }
  }
  attr {
    key: "seed2"
    value {
      i: 0
    }
  }
}
node {
  name: "V_score/3/w/Initializer/random_uniform/sub"
  op: "Sub"
  input: "V_score/3/w/Initializer/random_uniform/max"
  input: "V_score/3/w/Initializer/random_uniform/min"
  attr {
    key: "T"
    value {
      type: DT_FLOAT
    }
  }
  attr {
    key: "_class"
    value {
      list {
        s: "loc:@V_score/3/w"
      }
    }
  }
  attr {
    key: "_output_shapes"
    value {
      list {
        shape {
        }
      }
    }
  }
}
node {
  name: "V_score/3/w/Initializer/random_uniform/mul"
  op: "Mul"
  input: "V_score/3/w/Initializer/random_uniform/RandomUniform"
  input: "V_score/3/w/Initializer/random_uniform/sub"
  attr {
    key: "T"
    value {
      type: DT_FLOAT
    }
  }
  attr {
    key: "_class"
    value {
      list {
        s: "loc:@V_score/3/w"
      }
    }
  }
  attr {
    key: "_output_shapes"
    value {
      list {
        shape {
          dim {
            size: 80
          }
          dim {
            size: 1
          }
        }
      }
    }
  }
}
node {
  name: "V_score/3/w/Initializer/random_uniform"
  op: "Add"
  input: "V_score/3/w/Initializer/random_uniform/mul"
  input: "V_score/3/w/Initializer/random_uniform/min"
  attr {
    key: "T"
    value {
      type: DT_FLOAT
    }
  }
  attr {
    key: "_class"
    value {
      list {
        s: "loc:@V_score/3/w"
      }
    }
  }
  attr {
    key: "_output_shapes"
    value {
      list {
        shape {
          dim {
            size: 80
          }
          dim {
            size: 1
          }
        }
      }
    }
  }
}
node {
  name: "V_score/3/w"
  op: "VariableV2"
  device: "/job:ps/task:0"
  attr {
    key: "_class"
    value {
      list {
        s: "loc:@V_score/3/w"
      }
    }
  }
  attr {
    key: "_output_shapes"
    value {
      list {
        shape {
          dim {
            size: 80
          }
          dim {
            size: 1
          }
        }
      }
    }
  }
  attr {
    key: "container"
    value {
      s: ""
    }
  }
  attr {
    key: "dtype"
    value {
      type: DT_FLOAT
    }
  }
  attr {
    key: "shape"
    value {
      shape {
        dim {
          size: 80
        }
        dim {
          size: 1
        }
      }
    }
  }
  attr {
    key: "shared_name"
    value {
      s: ""
    }
  }
}
node {
  name: "V_score/3/w/Assign"
  op: "Assign"
  input: "V_score/3/w"
  input: "V_score/3/w/Initializer/random_uniform"
  device: "/job:ps/task:0"
  attr {
    key: "T"
    value {
      type: DT_FLOAT
    }
  }
  attr {
    key: "_class"
    value {
      list {
        s: "loc:@V_score/3/w"
      }
    }
  }
  attr {
    key: "_output_shapes"
    value {
      list {
        shape {
          dim {
            size: 80
          }
          dim {
            size: 1
          }
        }
      }
    }
  }
  attr {
    key: "use_locking"
    value {
      b: true
    }
  }
  attr {
    key: "validate_shape"
    value {
      b: true
    }
  }
}
node {
  name: "V_score/3/w/read"
  op: "Identity"
  input: "V_score/3/w"
  device: "/job:ps/task:0"
  attr {
    key: "T"
    value {
      type: DT_FLOAT
    }
  }
  attr {
    key: "_class"
    value {
      list {
        s: "loc:@V_score/3/w"
      }
    }
  }
  attr {
    key: "_output_shapes"
    value {
      list {
        shape {
          dim {
            size: 80
          }
          dim {
            size: 1
          }
        }
      }
    }
  }
}
node {
  name: "V_score/3/g/Initializer/ones"
  op: "Const"
  attr {
    key: "_class"
    value {
      list {
        s: "loc:@V_score/3/g"
      }
    }
  }
  attr {
    key: "_output_shapes"
    value {
      list {
        shape {
          dim {
            size: 1
          }
          dim {
            size: 1
          }
        }
      }
    }
  }
  attr {
    key: "dtype"
    value {
      type: DT_FLOAT
    }
  }
  attr {
    key: "value"
    value {
      tensor {
        dtype: DT_FLOAT
        tensor_shape {
          dim {
            size: 1
          }
          dim {
            size: 1
          }
        }
        float_val: 1.0
      }
    }
  }
}
node {
  name: "V_score/3/g"
  op: "VariableV2"
  device: "/job:ps/task:0"
  attr {
    key: "_class"
    value {
      list {
        s: "loc:@V_score/3/g"
      }
    }
  }
  attr {
    key: "_output_shapes"
    value {
      list {
        shape {
          dim {
            size: 1
          }
          dim {
            size: 1
          }
        }
      }
    }
  }
  attr {
    key: "container"
    value {
      s: ""
    }
  }
  attr {
    key: "dtype"
    value {
      type: DT_FLOAT
    }
  }
  attr {
    key: "shape"
    value {
      shape {
        dim {
          size: 1
        }
        dim {
          size: 1
        }
      }
    }
  }
  attr {
    key: "shared_name"
    value {
      s: ""
    }
  }
}
node {
  name: "V_score/3/g/Assign"
  op: "Assign"
  input: "V_score/3/g"
  input: "V_score/3/g/Initializer/ones"
  device: "/job:ps/task:0"
  attr {
    key: "T"
    value {
      type: DT_FLOAT
    }
  }
  attr {
    key: "_class"
    value {
      list {
        s: "loc:@V_score/3/g"
      }
    }
  }
  attr {
    key: "_output_shapes"
    value {
      list {
        shape {
          dim {
            size: 1
          }
          dim {
            size: 1
          }
        }
      }
    }
  }
  attr {
    key: "use_locking"
    value {
      b: true
    }
  }
  attr {
    key: "validate_shape"
    value {
      b: true
    }
  }
}
node {
  name: "V_score/3/g/read"
  op: "Identity"
  input: "V_score/3/g"
  device: "/job:ps/task:0"
  attr {
    key: "T"
    value {
      type: DT_FLOAT
    }
  }
  attr {
    key: "_class"
    value {
      list {
        s: "loc:@V_score/3/g"
      }
    }
  }
  attr {
    key: "_output_shapes"
    value {
      list {
        shape {
          dim {
            size: 1
          }
          dim {
            size: 1
          }
        }
      }
    }
  }
}
node {
  name: "V_score/3/l2_normalize/Square"
  op: "Square"
  input: "V_score/3/w/read"
  device: "/job:ps/task:0"
  attr {
    key: "T"
    value {
      type: DT_FLOAT
    }
  }
  attr {
    key: "_output_shapes"
    value {
      list {
        shape {
          dim {
            size: 80
          }
          dim {
            size: 1
          }
        }
      }
    }
  }
}
node {
  name: "V_score/3/l2_normalize/Sum/reduction_indices"
  op: "Const"
  device: "/job:ps/task:0"
  attr {
    key: "_output_shapes"
    value {
      list {
        shape {
        }
      }
    }
  }
  attr {
    key: "dtype"
    value {
      type: DT_INT32
    }
  }
  attr {
    key: "value"
    value {
      tensor {
        dtype: DT_INT32
        tensor_shape {
        }
        int_val: 0
      }
    }
  }
}
node {
  name: "V_score/3/l2_normalize/Sum"
  op: "Sum"
  input: "V_score/3/l2_normalize/Square"
  input: "V_score/3/l2_normalize/Sum/reduction_indices"
  device: "/job:ps/task:0"
  attr {
    key: "T"
    value {
      type: DT_FLOAT
    }
  }
  attr {
    key: "Tidx"
    value {
      type: DT_INT32
    }
  }
  attr {
    key: "_output_shapes"
    value {
      list {
        shape {
          dim {
            size: 1
          }
          dim {
            size: 1
          }
        }
      }
    }
  }
  attr {
    key: "keep_dims"
    value {
      b: true
    }
  }
}
node {
  name: "V_score/3/l2_normalize/Maximum/y"
  op: "Const"
  device: "/job:ps/task:0"
  attr {
    key: "_output_shapes"
    value {
      list {
        shape {
        }
      }
    }
  }
  attr {
    key: "dtype"
    value {
      type: DT_FLOAT
    }
  }
  attr {
    key: "value"
    value {
      tensor {
        dtype: DT_FLOAT
        tensor_shape {
        }
        float_val: 9.999999960041972e-13
      }
    }
  }
}
node {
  name: "V_score/3/l2_normalize/Maximum"
  op: "Maximum"
  input: "V_score/3/l2_normalize/Sum"
  input: "V_score/3/l2_normalize/Maximum/y"
  device: "/job:ps/task:0"
  attr {
    key: "T"
    value {
      type: DT_FLOAT
    }
  }
  attr {
    key: "_output_shapes"
    value {
      list {
        shape {
          dim {
            size: 1
          }
          dim {
            size: 1
          }
        }
      }
    }
  }
}
node {
  name: "V_score/3/l2_normalize/Rsqrt"
  op: "Rsqrt"
  input: "V_score/3/l2_normalize/Maximum"
  device: "/job:ps/task:0"
  attr {
    key: "T"
    value {
      type: DT_FLOAT
    }
  }
  attr {
    key: "_output_shapes"
    value {
      list {
        shape {
          dim {
            size: 1
          }
          dim {
            size: 1
          }
        }
      }
    }
  }
}
node {
  name: "V_score/3/l2_normalize"
  op: "Mul"
  input: "V_score/3/w/read"
  input: "V_score/3/l2_normalize/Rsqrt"
  device: "/job:ps/task:0"
  attr {
    key: "T"
    value {
      type: DT_FLOAT
    }
  }
  attr {
    key: "_output_shapes"
    value {
      list {
        shape {
          dim {
            size: 80
          }
          dim {
            size: 1
          }
        }
      }
    }
  }
}
node {
  name: "V_score/3/Tile/multiples"
  op: "Const"
  device: "/job:ps/task:0"
  attr {
    key: "_output_shapes"
    value {
      list {
        shape {
          dim {
            size: 2
          }
        }
      }
    }
  }
  attr {
    key: "dtype"
    value {
      type: DT_INT32
    }
  }
  attr {
    key: "value"
    value {
      tensor {
        dtype: DT_INT32
        tensor_shape {
          dim {
            size: 2
          }
        }
        tensor_content: "P\000\000\000\001\000\000\000"
      }
    }
  }
}
node {
  name: "V_score/3/Tile"
  op: "Tile"
  input: "V_score/3/g/read"
  input: "V_score/3/Tile/multiples"
  device: "/job:ps/task:0"
  attr {
    key: "T"
    value {
      type: DT_FLOAT
    }
  }
  attr {
    key: "Tmultiples"
    value {
      type: DT_INT32
    }
  }
  attr {
    key: "_output_shapes"
    value {
      list {
        shape {
          dim {
            size: 80
          }
          dim {
            size: 1
          }
        }
      }
    }
  }
}
node {
  name: "V_score/3/mul"
  op: "Mul"
  input: "V_score/3/l2_normalize"
  input: "V_score/3/Tile"
  device: "/job:ps/task:0"
  attr {
    key: "T"
    value {
      type: DT_FLOAT
    }
  }
  attr {
    key: "_output_shapes"
    value {
      list {
        shape {
          dim {
            size: 80
          }
          dim {
            size: 1
          }
        }
      }
    }
  }
}
node {
  name: "V_score/3/b/Initializer/zeros"
  op: "Const"
  attr {
    key: "_class"
    value {
      list {
        s: "loc:@V_score/3/b"
      }
    }
  }
  attr {
    key: "_output_shapes"
    value {
      list {
        shape {
          dim {
            size: 1
          }
        }
      }
    }
  }
  attr {
    key: "dtype"
    value {
      type: DT_FLOAT
    }
  }
  attr {
    key: "value"
    value {
      tensor {
        dtype: DT_FLOAT
        tensor_shape {
          dim {
            size: 1
          }
        }
        float_val: 0.0
      }
    }
  }
}
node {
  name: "V_score/3/b"
  op: "VariableV2"
  device: "/job:ps/task:0"
  attr {
    key: "_class"
    value {
      list {
        s: "loc:@V_score/3/b"
      }
    }
  }
  attr {
    key: "_output_shapes"
    value {
      list {
        shape {
          dim {
            size: 1
          }
        }
      }
    }
  }
  attr {
    key: "container"
    value {
      s: ""
    }
  }
  attr {
    key: "dtype"
    value {
      type: DT_FLOAT
    }
  }
  attr {
    key: "shape"
    value {
      shape {
        dim {
          size: 1
        }
      }
    }
  }
  attr {
    key: "shared_name"
    value {
      s: ""
    }
  }
}
node {
  name: "V_score/3/b/Assign"
  op: "Assign"
  input: "V_score/3/b"
  input: "V_score/3/b/Initializer/zeros"
  device: "/job:ps/task:0"
  attr {
    key: "T"
    value {
      type: DT_FLOAT
    }
  }
  attr {
    key: "_class"
    value {
      list {
        s: "loc:@V_score/3/b"
      }
    }
  }
  attr {
    key: "_output_shapes"
    value {
      list {
        shape {
          dim {
            size: 1
          }
        }
      }
    }
  }
  attr {
    key: "use_locking"
    value {
      b: true
    }
  }
  attr {
    key: "validate_shape"
    value {
      b: true
    }
  }
}
node {
  name: "V_score/3/b/read"
  op: "Identity"
  input: "V_score/3/b"
  device: "/job:ps/task:0"
  attr {
    key: "T"
    value {
      type: DT_FLOAT
    }
  }
  attr {
    key: "_class"
    value {
      list {
        s: "loc:@V_score/3/b"
      }
    }
  }
  attr {
    key: "_output_shapes"
    value {
      list {
        shape {
          dim {
            size: 1
          }
        }
      }
    }
  }
}
node {
  name: "C_score/0/w/Initializer/random_uniform/shape"
  op: "Const"
  attr {
    key: "_class"
    value {
      list {
        s: "loc:@C_score/0/w"
      }
    }
  }
  attr {
    key: "_output_shapes"
    value {
      list {
        shape {
          dim {
            size: 2
          }
        }
      }
    }
  }
  attr {
    key: "dtype"
    value {
      type: DT_INT32
    }
  }
  attr {
    key: "value"
    value {
      tensor {
        dtype: DT_INT32
        tensor_shape {
          dim {
            size: 2
          }
        }
        tensor_content: "P\000\000\000P\000\000\000"
      }
    }
  }
}
node {
  name: "C_score/0/w/Initializer/random_uniform/min"
  op: "Const"
  attr {
    key: "_class"
    value {
      list {
        s: "loc:@C_score/0/w"
      }
    }
  }
  attr {
    key: "_output_shapes"
    value {
      list {
        shape {
        }
      }
    }
  }
  attr {
    key: "dtype"
    value {
      type: DT_FLOAT
    }
  }
  attr {
    key: "value"
    value {
      tensor {
        dtype: DT_FLOAT
        tensor_shape {
        }
        float_val: -0.19364917278289795
      }
    }
  }
}
node {
  name: "C_score/0/w/Initializer/random_uniform/max"
  op: "Const"
  attr {
    key: "_class"
    value {
      list {
        s: "loc:@C_score/0/w"
      }
    }
  }
  attr {
    key: "_output_shapes"
    value {
      list {
        shape {
        }
      }
    }
  }
  attr {
    key: "dtype"
    value {
      type: DT_FLOAT
    }
  }
  attr {
    key: "value"
    value {
      tensor {
        dtype: DT_FLOAT
        tensor_shape {
        }
        float_val: 0.19364917278289795
      }
    }
  }
}
node {
  name: "C_score/0/w/Initializer/random_uniform/RandomUniform"
  op: "RandomUniform"
  input: "C_score/0/w/Initializer/random_uniform/shape"
  attr {
    key: "T"
    value {
      type: DT_INT32
    }
  }
  attr {
    key: "_class"
    value {
      list {
        s: "loc:@C_score/0/w"
      }
    }
  }
  attr {
    key: "_output_shapes"
    value {
      list {
        shape {
          dim {
            size: 80
          }
          dim {
            size: 80
          }
        }
      }
    }
  }
  attr {
    key: "dtype"
    value {
      type: DT_FLOAT
    }
  }
  attr {
    key: "seed"
    value {
      i: 0
    }
  }
  attr {
    key: "seed2"
    value {
      i: 0
    }
  }
}
node {
  name: "C_score/0/w/Initializer/random_uniform/sub"
  op: "Sub"
  input: "C_score/0/w/Initializer/random_uniform/max"
  input: "C_score/0/w/Initializer/random_uniform/min"
  attr {
    key: "T"
    value {
      type: DT_FLOAT
    }
  }
  attr {
    key: "_class"
    value {
      list {
        s: "loc:@C_score/0/w"
      }
    }
  }
  attr {
    key: "_output_shapes"
    value {
      list {
        shape {
        }
      }
    }
  }
}
node {
  name: "C_score/0/w/Initializer/random_uniform/mul"
  op: "Mul"
  input: "C_score/0/w/Initializer/random_uniform/RandomUniform"
  input: "C_score/0/w/Initializer/random_uniform/sub"
  attr {
    key: "T"
    value {
      type: DT_FLOAT
    }
  }
  attr {
    key: "_class"
    value {
      list {
        s: "loc:@C_score/0/w"
      }
    }
  }
  attr {
    key: "_output_shapes"
    value {
      list {
        shape {
          dim {
            size: 80
          }
          dim {
            size: 80
          }
        }
      }
    }
  }
}
node {
  name: "C_score/0/w/Initializer/random_uniform"
  op: "Add"
  input: "C_score/0/w/Initializer/random_uniform/mul"
  input: "C_score/0/w/Initializer/random_uniform/min"
  attr {
    key: "T"
    value {
      type: DT_FLOAT
    }
  }
  attr {
    key: "_class"
    value {
      list {
        s: "loc:@C_score/0/w"
      }
    }
  }
  attr {
    key: "_output_shapes"
    value {
      list {
        shape {
          dim {
            size: 80
          }
          dim {
            size: 80
          }
        }
      }
    }
  }
}
node {
  name: "C_score/0/w"
  op: "VariableV2"
  device: "/job:ps/task:0"
  attr {
    key: "_class"
    value {
      list {
        s: "loc:@C_score/0/w"
      }
    }
  }
  attr {
    key: "_output_shapes"
    value {
      list {
        shape {
          dim {
            size: 80
          }
          dim {
            size: 80
          }
        }
      }
    }
  }
  attr {
    key: "container"
    value {
      s: ""
    }
  }
  attr {
    key: "dtype"
    value {
      type: DT_FLOAT
    }
  }
  attr {
    key: "shape"
    value {
      shape {
        dim {
          size: 80
        }
        dim {
          size: 80
        }
      }
    }
  }
  attr {
    key: "shared_name"
    value {
      s: ""
    }
  }
}
node {
  name: "C_score/0/w/Assign"
  op: "Assign"
  input: "C_score/0/w"
  input: "C_score/0/w/Initializer/random_uniform"
  device: "/job:ps/task:0"
  attr {
    key: "T"
    value {
      type: DT_FLOAT
    }
  }
  attr {
    key: "_class"
    value {
      list {
        s: "loc:@C_score/0/w"
      }
    }
  }
  attr {
    key: "_output_shapes"
    value {
      list {
        shape {
          dim {
            size: 80
          }
          dim {
            size: 80
          }
        }
      }
    }
  }
  attr {
    key: "use_locking"
    value {
      b: true
    }
  }
  attr {
    key: "validate_shape"
    value {
      b: true
    }
  }
}
node {
  name: "C_score/0/w/read"
  op: "Identity"
  input: "C_score/0/w"
  device: "/job:ps/task:0"
  attr {
    key: "T"
    value {
      type: DT_FLOAT
    }
  }
  attr {
    key: "_class"
    value {
      list {
        s: "loc:@C_score/0/w"
      }
    }
  }
  attr {
    key: "_output_shapes"
    value {
      list {
        shape {
          dim {
            size: 80
          }
          dim {
            size: 80
          }
        }
      }
    }
  }
}
node {
  name: "C_score/0/g/Initializer/ones"
  op: "Const"
  attr {
    key: "_class"
    value {
      list {
        s: "loc:@C_score/0/g"
      }
    }
  }
  attr {
    key: "_output_shapes"
    value {
      list {
        shape {
          dim {
            size: 1
          }
          dim {
            size: 80
          }
        }
      }
    }
  }
  attr {
    key: "dtype"
    value {
      type: DT_FLOAT
    }
  }
  attr {
    key: "value"
    value {
      tensor {
        dtype: DT_FLOAT
        tensor_shape {
          dim {
            size: 1
          }
          dim {
            size: 80
          }
        }
        float_val: 1.0
      }
    }
  }
}
node {
  name: "C_score/0/g"
  op: "VariableV2"
  device: "/job:ps/task:0"
  attr {
    key: "_class"
    value {
      list {
        s: "loc:@C_score/0/g"
      }
    }
  }
  attr {
    key: "_output_shapes"
    value {
      list {
        shape {
          dim {
            size: 1
          }
          dim {
            size: 80
          }
        }
      }
    }
  }
  attr {
    key: "container"
    value {
      s: ""
    }
  }
  attr {
    key: "dtype"
    value {
      type: DT_FLOAT
    }
  }
  attr {
    key: "shape"
    value {
      shape {
        dim {
          size: 1
        }
        dim {
          size: 80
        }
      }
    }
  }
  attr {
    key: "shared_name"
    value {
      s: ""
    }
  }
}
node {
  name: "C_score/0/g/Assign"
  op: "Assign"
  input: "C_score/0/g"
  input: "C_score/0/g/Initializer/ones"
  device: "/job:ps/task:0"
  attr {
    key: "T"
    value {
      type: DT_FLOAT
    }
  }
  attr {
    key: "_class"
    value {
      list {
        s: "loc:@C_score/0/g"
      }
    }
  }
  attr {
    key: "_output_shapes"
    value {
      list {
        shape {
          dim {
            size: 1
          }
          dim {
            size: 80
          }
        }
      }
    }
  }
  attr {
    key: "use_locking"
    value {
      b: true
    }
  }
  attr {
    key: "validate_shape"
    value {
      b: true
    }
  }
}
node {
  name: "C_score/0/g/read"
  op: "Identity"
  input: "C_score/0/g"
  device: "/job:ps/task:0"
  attr {
    key: "T"
    value {
      type: DT_FLOAT
    }
  }
  attr {
    key: "_class"
    value {
      list {
        s: "loc:@C_score/0/g"
      }
    }
  }
  attr {
    key: "_output_shapes"
    value {
      list {
        shape {
          dim {
            size: 1
          }
          dim {
            size: 80
          }
        }
      }
    }
  }
}
node {
  name: "C_score/0/l2_normalize/Square"
  op: "Square"
  input: "C_score/0/w/read"
  device: "/job:ps/task:0"
  attr {
    key: "T"
    value {
      type: DT_FLOAT
    }
  }
  attr {
    key: "_output_shapes"
    value {
      list {
        shape {
          dim {
            size: 80
          }
          dim {
            size: 80
          }
        }
      }
    }
  }
}
node {
  name: "C_score/0/l2_normalize/Sum/reduction_indices"
  op: "Const"
  device: "/job:ps/task:0"
  attr {
    key: "_output_shapes"
    value {
      list {
        shape {
        }
      }
    }
  }
  attr {
    key: "dtype"
    value {
      type: DT_INT32
    }
  }
  attr {
    key: "value"
    value {
      tensor {
        dtype: DT_INT32
        tensor_shape {
        }
        int_val: 0
      }
    }
  }
}
node {
  name: "C_score/0/l2_normalize/Sum"
  op: "Sum"
  input: "C_score/0/l2_normalize/Square"
  input: "C_score/0/l2_normalize/Sum/reduction_indices"
  device: "/job:ps/task:0"
  attr {
    key: "T"
    value {
      type: DT_FLOAT
    }
  }
  attr {
    key: "Tidx"
    value {
      type: DT_INT32
    }
  }
  attr {
    key: "_output_shapes"
    value {
      list {
        shape {
          dim {
            size: 1
          }
          dim {
            size: 80
          }
        }
      }
    }
  }
  attr {
    key: "keep_dims"
    value {
      b: true
    }
  }
}
node {
  name: "C_score/0/l2_normalize/Maximum/y"
  op: "Const"
  device: "/job:ps/task:0"
  attr {
    key: "_output_shapes"
    value {
      list {
        shape {
        }
      }
    }
  }
  attr {
    key: "dtype"
    value {
      type: DT_FLOAT
    }
  }
  attr {
    key: "value"
    value {
      tensor {
        dtype: DT_FLOAT
        tensor_shape {
        }
        float_val: 9.999999960041972e-13
      }
    }
  }
}
node {
  name: "C_score/0/l2_normalize/Maximum"
  op: "Maximum"
  input: "C_score/0/l2_normalize/Sum"
  input: "C_score/0/l2_normalize/Maximum/y"
  device: "/job:ps/task:0"
  attr {
    key: "T"
    value {
      type: DT_FLOAT
    }
  }
  attr {
    key: "_output_shapes"
    value {
      list {
        shape {
          dim {
            size: 1
          }
          dim {
            size: 80
          }
        }
      }
    }
  }
}
node {
  name: "C_score/0/l2_normalize/Rsqrt"
  op: "Rsqrt"
  input: "C_score/0/l2_normalize/Maximum"
  device: "/job:ps/task:0"
  attr {
    key: "T"
    value {
      type: DT_FLOAT
    }
  }
  attr {
    key: "_output_shapes"
    value {
      list {
        shape {
          dim {
            size: 1
          }
          dim {
            size: 80
          }
        }
      }
    }
  }
}
node {
  name: "C_score/0/l2_normalize"
  op: "Mul"
  input: "C_score/0/w/read"
  input: "C_score/0/l2_normalize/Rsqrt"
  device: "/job:ps/task:0"
  attr {
    key: "T"
    value {
      type: DT_FLOAT
    }
  }
  attr {
    key: "_output_shapes"
    value {
      list {
        shape {
          dim {
            size: 80
          }
          dim {
            size: 80
          }
        }
      }
    }
  }
}
node {
  name: "C_score/0/Tile/multiples"
  op: "Const"
  device: "/job:ps/task:0"
  attr {
    key: "_output_shapes"
    value {
      list {
        shape {
          dim {
            size: 2
          }
        }
      }
    }
  }
  attr {
    key: "dtype"
    value {
      type: DT_INT32
    }
  }
  attr {
    key: "value"
    value {
      tensor {
        dtype: DT_INT32
        tensor_shape {
          dim {
            size: 2
          }
        }
        tensor_content: "P\000\000\000\001\000\000\000"
      }
    }
  }
}
node {
  name: "C_score/0/Tile"
  op: "Tile"
  input: "C_score/0/g/read"
  input: "C_score/0/Tile/multiples"
  device: "/job:ps/task:0"
  attr {
    key: "T"
    value {
      type: DT_FLOAT
    }
  }
  attr {
    key: "Tmultiples"
    value {
      type: DT_INT32
    }
  }
  attr {
    key: "_output_shapes"
    value {
      list {
        shape {
          dim {
            size: 80
          }
          dim {
            size: 80
          }
        }
      }
    }
  }
}
node {
  name: "C_score/0/mul"
  op: "Mul"
  input: "C_score/0/l2_normalize"
  input: "C_score/0/Tile"
  device: "/job:ps/task:0"
  attr {
    key: "T"
    value {
      type: DT_FLOAT
    }
  }
  attr {
    key: "_output_shapes"
    value {
      list {
        shape {
          dim {
            size: 80
          }
          dim {
            size: 80
          }
        }
      }
    }
  }
}
node {
  name: "C_score/0/b/Initializer/zeros"
  op: "Const"
  attr {
    key: "_class"
    value {
      list {
        s: "loc:@C_score/0/b"
      }
    }
  }
  attr {
    key: "_output_shapes"
    value {
      list {
        shape {
          dim {
            size: 80
          }
        }
      }
    }
  }
  attr {
    key: "dtype"
    value {
      type: DT_FLOAT
    }
  }
  attr {
    key: "value"
    value {
      tensor {
        dtype: DT_FLOAT
        tensor_shape {
          dim {
            size: 80
          }
        }
        float_val: 0.0
      }
    }
  }
}
node {
  name: "C_score/0/b"
  op: "VariableV2"
  device: "/job:ps/task:0"
  attr {
    key: "_class"
    value {
      list {
        s: "loc:@C_score/0/b"
      }
    }
  }
  attr {
    key: "_output_shapes"
    value {
      list {
        shape {
          dim {
            size: 80
          }
        }
      }
    }
  }
  attr {
    key: "container"
    value {
      s: ""
    }
  }
  attr {
    key: "dtype"
    value {
      type: DT_FLOAT
    }
  }
  attr {
    key: "shape"
    value {
      shape {
        dim {
          size: 80
        }
      }
    }
  }
  attr {
    key: "shared_name"
    value {
      s: ""
    }
  }
}
node {
  name: "C_score/0/b/Assign"
  op: "Assign"
  input: "C_score/0/b"
  input: "C_score/0/b/Initializer/zeros"
  device: "/job:ps/task:0"
  attr {
    key: "T"
    value {
      type: DT_FLOAT
    }
  }
  attr {
    key: "_class"
    value {
      list {
        s: "loc:@C_score/0/b"
      }
    }
  }
  attr {
    key: "_output_shapes"
    value {
      list {
        shape {
          dim {
            size: 80
          }
        }
      }
    }
  }
  attr {
    key: "use_locking"
    value {
      b: true
    }
  }
  attr {
    key: "validate_shape"
    value {
      b: true
    }
  }
}
node {
  name: "C_score/0/b/read"
  op: "Identity"
  input: "C_score/0/b"
  device: "/job:ps/task:0"
  attr {
    key: "T"
    value {
      type: DT_FLOAT
    }
  }
  attr {
    key: "_class"
    value {
      list {
        s: "loc:@C_score/0/b"
      }
    }
  }
  attr {
    key: "_output_shapes"
    value {
      list {
        shape {
          dim {
            size: 80
          }
        }
      }
    }
  }
}
node {
  name: "C_score/1/w/Initializer/random_uniform/shape"
  op: "Const"
  attr {
    key: "_class"
    value {
      list {
        s: "loc:@C_score/1/w"
      }
    }
  }
  attr {
    key: "_output_shapes"
    value {
      list {
        shape {
          dim {
            size: 2
          }
        }
      }
    }
  }
  attr {
    key: "dtype"
    value {
      type: DT_INT32
    }
  }
  attr {
    key: "value"
    value {
      tensor {
        dtype: DT_INT32
        tensor_shape {
          dim {
            size: 2
          }
        }
        tensor_content: "P\000\000\000P\000\000\000"
      }
    }
  }
}
node {
  name: "C_score/1/w/Initializer/random_uniform/min"
  op: "Const"
  attr {
    key: "_class"
    value {
      list {
        s: "loc:@C_score/1/w"
      }
    }
  }
  attr {
    key: "_output_shapes"
    value {
      list {
        shape {
        }
      }
    }
  }
  attr {
    key: "dtype"
    value {
      type: DT_FLOAT
    }
  }
  attr {
    key: "value"
    value {
      tensor {
        dtype: DT_FLOAT
        tensor_shape {
        }
        float_val: -0.19364917278289795
      }
    }
  }
}
node {
  name: "C_score/1/w/Initializer/random_uniform/max"
  op: "Const"
  attr {
    key: "_class"
    value {
      list {
        s: "loc:@C_score/1/w"
      }
    }
  }
  attr {
    key: "_output_shapes"
    value {
      list {
        shape {
        }
      }
    }
  }
  attr {
    key: "dtype"
    value {
      type: DT_FLOAT
    }
  }
  attr {
    key: "value"
    value {
      tensor {
        dtype: DT_FLOAT
        tensor_shape {
        }
        float_val: 0.19364917278289795
      }
    }
  }
}
node {
  name: "C_score/1/w/Initializer/random_uniform/RandomUniform"
  op: "RandomUniform"
  input: "C_score/1/w/Initializer/random_uniform/shape"
  attr {
    key: "T"
    value {
      type: DT_INT32
    }
  }
  attr {
    key: "_class"
    value {
      list {
        s: "loc:@C_score/1/w"
      }
    }
  }
  attr {
    key: "_output_shapes"
    value {
      list {
        shape {
          dim {
            size: 80
          }
          dim {
            size: 80
          }
        }
      }
    }
  }
  attr {
    key: "dtype"
    value {
      type: DT_FLOAT
    }
  }
  attr {
    key: "seed"
    value {
      i: 0
    }
  }
  attr {
    key: "seed2"
    value {
      i: 0
    }
  }
}
node {
  name: "C_score/1/w/Initializer/random_uniform/sub"
  op: "Sub"
  input: "C_score/1/w/Initializer/random_uniform/max"
  input: "C_score/1/w/Initializer/random_uniform/min"
  attr {
    key: "T"
    value {
      type: DT_FLOAT
    }
  }
  attr {
    key: "_class"
    value {
      list {
        s: "loc:@C_score/1/w"
      }
    }
  }
  attr {
    key: "_output_shapes"
    value {
      list {
        shape {
        }
      }
    }
  }
}
node {
  name: "C_score/1/w/Initializer/random_uniform/mul"
  op: "Mul"
  input: "C_score/1/w/Initializer/random_uniform/RandomUniform"
  input: "C_score/1/w/Initializer/random_uniform/sub"
  attr {
    key: "T"
    value {
      type: DT_FLOAT
    }
  }
  attr {
    key: "_class"
    value {
      list {
        s: "loc:@C_score/1/w"
      }
    }
  }
  attr {
    key: "_output_shapes"
    value {
      list {
        shape {
          dim {
            size: 80
          }
          dim {
            size: 80
          }
        }
      }
    }
  }
}
node {
  name: "C_score/1/w/Initializer/random_uniform"
  op: "Add"
  input: "C_score/1/w/Initializer/random_uniform/mul"
  input: "C_score/1/w/Initializer/random_uniform/min"
  attr {
    key: "T"
    value {
      type: DT_FLOAT
    }
  }
  attr {
    key: "_class"
    value {
      list {
        s: "loc:@C_score/1/w"
      }
    }
  }
  attr {
    key: "_output_shapes"
    value {
      list {
        shape {
          dim {
            size: 80
          }
          dim {
            size: 80
          }
        }
      }
    }
  }
}
node {
  name: "C_score/1/w"
  op: "VariableV2"
  device: "/job:ps/task:0"
  attr {
    key: "_class"
    value {
      list {
        s: "loc:@C_score/1/w"
      }
    }
  }
  attr {
    key: "_output_shapes"
    value {
      list {
        shape {
          dim {
            size: 80
          }
          dim {
            size: 80
          }
        }
      }
    }
  }
  attr {
    key: "container"
    value {
      s: ""
    }
  }
  attr {
    key: "dtype"
    value {
      type: DT_FLOAT
    }
  }
  attr {
    key: "shape"
    value {
      shape {
        dim {
          size: 80
        }
        dim {
          size: 80
        }
      }
    }
  }
  attr {
    key: "shared_name"
    value {
      s: ""
    }
  }
}
node {
  name: "C_score/1/w/Assign"
  op: "Assign"
  input: "C_score/1/w"
  input: "C_score/1/w/Initializer/random_uniform"
  device: "/job:ps/task:0"
  attr {
    key: "T"
    value {
      type: DT_FLOAT
    }
  }
  attr {
    key: "_class"
    value {
      list {
        s: "loc:@C_score/1/w"
      }
    }
  }
  attr {
    key: "_output_shapes"
    value {
      list {
        shape {
          dim {
            size: 80
          }
          dim {
            size: 80
          }
        }
      }
    }
  }
  attr {
    key: "use_locking"
    value {
      b: true
    }
  }
  attr {
    key: "validate_shape"
    value {
      b: true
    }
  }
}
node {
  name: "C_score/1/w/read"
  op: "Identity"
  input: "C_score/1/w"
  device: "/job:ps/task:0"
  attr {
    key: "T"
    value {
      type: DT_FLOAT
    }
  }
  attr {
    key: "_class"
    value {
      list {
        s: "loc:@C_score/1/w"
      }
    }
  }
  attr {
    key: "_output_shapes"
    value {
      list {
        shape {
          dim {
            size: 80
          }
          dim {
            size: 80
          }
        }
      }
    }
  }
}
node {
  name: "C_score/1/g/Initializer/ones"
  op: "Const"
  attr {
    key: "_class"
    value {
      list {
        s: "loc:@C_score/1/g"
      }
    }
  }
  attr {
    key: "_output_shapes"
    value {
      list {
        shape {
          dim {
            size: 1
          }
          dim {
            size: 80
          }
        }
      }
    }
  }
  attr {
    key: "dtype"
    value {
      type: DT_FLOAT
    }
  }
  attr {
    key: "value"
    value {
      tensor {
        dtype: DT_FLOAT
        tensor_shape {
          dim {
            size: 1
          }
          dim {
            size: 80
          }
        }
        float_val: 1.0
      }
    }
  }
}
node {
  name: "C_score/1/g"
  op: "VariableV2"
  device: "/job:ps/task:0"
  attr {
    key: "_class"
    value {
      list {
        s: "loc:@C_score/1/g"
      }
    }
  }
  attr {
    key: "_output_shapes"
    value {
      list {
        shape {
          dim {
            size: 1
          }
          dim {
            size: 80
          }
        }
      }
    }
  }
  attr {
    key: "container"
    value {
      s: ""
    }
  }
  attr {
    key: "dtype"
    value {
      type: DT_FLOAT
    }
  }
  attr {
    key: "shape"
    value {
      shape {
        dim {
          size: 1
        }
        dim {
          size: 80
        }
      }
    }
  }
  attr {
    key: "shared_name"
    value {
      s: ""
    }
  }
}
node {
  name: "C_score/1/g/Assign"
  op: "Assign"
  input: "C_score/1/g"
  input: "C_score/1/g/Initializer/ones"
  device: "/job:ps/task:0"
  attr {
    key: "T"
    value {
      type: DT_FLOAT
    }
  }
  attr {
    key: "_class"
    value {
      list {
        s: "loc:@C_score/1/g"
      }
    }
  }
  attr {
    key: "_output_shapes"
    value {
      list {
        shape {
          dim {
            size: 1
          }
          dim {
            size: 80
          }
        }
      }
    }
  }
  attr {
    key: "use_locking"
    value {
      b: true
    }
  }
…
        }
      }
    }
    node_def {
      name: "ASSERT_n_vars_pos/AssertGuard/Merge"
      op: "Merge"
      input: "ASSERT_n_vars_pos/AssertGuard/control_dependency_1:output:0"
      input: "ASSERT_n_vars_pos/AssertGuard/control_dependency:output:0"
      device: "/job:worker/task:0"
      attr {
        key: "N"
        value {
          i: 2
        }
      }
      attr {
        key: "T"
        value {
          type: DT_BOOL
        }
      }
    }
    node_def {
      name: "Greater_1/y"
      op: "Const"
      device: "/job:worker/task:0"
      attr {
        key: "dtype"
        value {
          type: DT_INT64
        }
      }
      attr {
        key: "value"
        value {
          tensor {
            dtype: DT_INT64
            tensor_shape {
            }
            int64_val: 0
          }
        }
      }
    }
    node_def {
      name: "Greater_1"
      op: "Greater"
      input: "ParseSingleExample/ParseSingleExample:dense_values:6"
      input: "Greater_1/y:output:0"
      device: "/job:worker/task:0"
      attr {
        key: "T"
        value {
          type: DT_INT64
        }
      }
    }
    node_def {
      name: "ASSERT_n_clauses_pos/AssertGuard/Switch"
      op: "Switch"
      input: "Greater_1:z:0"
      input: "Greater_1:z:0"
      device: "/job:worker/task:0"
      attr {
        key: "T"
        value {
          type: DT_BOOL
        }
      }
    }
    node_def {
      name: "ASSERT_n_clauses_pos/AssertGuard/switch_t"
      op: "Identity"
      input: "ASSERT_n_clauses_pos/AssertGuard/Switch:output_true:0"
      device: "/job:worker/task:0"
      attr {
        key: "T"
        value {
          type: DT_BOOL
        }
      }
    }
    node_def {
      name: "ASSERT_n_clauses_pos/AssertGuard/switch_f"
      op: "Identity"
      input: "ASSERT_n_clauses_pos/AssertGuard/Switch:output_false:0"
      device: "/job:worker/task:0"
      attr {
        key: "T"
        value {
          type: DT_BOOL
        }
      }
    }
    node_def {
      name: "ASSERT_n_clauses_pos/AssertGuard/pred_id"
      op: "Identity"
      input: "Greater_1:z:0"
      device: "/job:worker/task:0"
      attr {
        key: "T"
        value {
          type: DT_BOOL
        }
      }
    }
    node_def {
      name: "ASSERT_n_clauses_pos/AssertGuard/NoOp"
      op: "NoOp"
      input: "^ASSERT_n_clauses_pos/AssertGuard/switch_t"
      device: "/job:worker/task:0"
    }
    node_def {
      name: "ASSERT_n_clauses_pos/AssertGuard/control_dependency"
      op: "Identity"
      input: "ASSERT_n_clauses_pos/AssertGuard/switch_t:output:0"
      input: "^ASSERT_n_clauses_pos/AssertGuard/NoOp"
      device: "/job:worker/task:0"
      attr {
        key: "T"
        value {
          type: DT_BOOL
        }
      }
      attr {
        key: "_class"
        value {
          list {
            s: "loc:@ASSERT_n_clauses_pos/AssertGuard/switch_t"
          }
        }
      }
    }
    node_def {
      name: "ASSERT_n_clauses_pos/AssertGuard/Assert"
      op: "Assert"
      input: "ASSERT_n_clauses_pos/AssertGuard/Assert/Switch:output_false:0"
      input: "ASSERT_n_clauses_pos/AssertGuard/Assert/Switch_1:output_false:0"
      device: "/job:worker/task:0"
      attr {
        key: "T"
        value {
          list {
            type: DT_INT64
          }
        }
      }
      attr {
        key: "summarize"
        value {
          i: 3
        }
      }
    }
    node_def {
      name: "ASSERT_n_clauses_pos/AssertGuard/Assert/Switch"
      op: "Switch"
      input: "Greater_1:z:0"
      input: "ASSERT_n_clauses_pos/AssertGuard/pred_id:output:0"
      device: "/job:worker/task:0"
      attr {
        key: "T"
        value {
          type: DT_BOOL
        }
      }
      attr {
        key: "_class"
        value {
          list {
            s: "loc:@Greater_1"
          }
        }
      }
    }
    node_def {
      name: "ASSERT_n_clauses_pos/AssertGuard/Assert/Switch_1"
      op: "Switch"
      input: "ParseSingleExample/ParseSingleExample:dense_values:6"
      input: "ASSERT_n_clauses_pos/AssertGuard/pred_id:output:0"
      device: "/job:worker/task:0"
      attr {
        key: "T"
        value {
          type: DT_INT64
        }
      }
      attr {
        key: "_class"
        value {
          list {
            s: "loc:@ParseSingleExample/ParseSingleExample"
          }
        }
      }
    }
    node_def {
      name: "ASSERT_n_clauses_pos/AssertGuard/control_dependency_1"
      op: "Identity"
      input: "ASSERT_n_clauses_pos/AssertGuard/switch_f:output:0"
      input: "^ASSERT_n_clauses_pos/AssertGuard/Assert"
      device: "/job:worker/task:0"
      attr {
        key: "T"
        value {
          type: DT_BOOL
        }
      }
      attr {
        key: "_class"
        value {
          list {
            s: "loc:@ASSERT_n_clauses_pos/AssertGuard/switch_f"
          }
        }
      }
    }
    node_def {
      name: "ASSERT_n_clauses_pos/AssertGuard/Merge"
      op: "Merge"
      input: "ASSERT_n_clauses_pos/AssertGuard/control_dependency_1:output:0"
      input: "ASSERT_n_clauses_pos/AssertGuard/control_dependency:output:0"
      device: "/job:worker/task:0"
      attr {
        key: "N"
        value {
          i: 2
        }
      }
      attr {
        key: "T"
        value {
          type: DT_BOOL
        }
      }
    }
    node_def {
      name: "Size"
      op: "Size"
      input: "Cast:y:0"
      device: "/job:worker/task:0"
      attr {
        key: "T"
        value {
          type: DT_BOOL
        }
      }
      attr {
        key: "out_type"
        value {
          type: DT_INT32
        }
      }
    }
    node_def {
      name: "Cast_2"
      op: "Cast"
      input: "ParseSingleExample/ParseSingleExample:dense_values:7"
      device: "/job:worker/task:0"
      attr {
        key: "DstT"
        value {
          type: DT_INT32
        }
      }
      attr {
        key: "SrcT"
        value {
          type: DT_INT64
        }
      }
      attr {
        key: "Truncate"
        value {
          b: false
        }
      }
    }
    node_def {
      name: "Equal"
      op: "Equal"
      input: "Size:output:0"
      input: "Cast_2:y:0"
      device: "/job:worker/task:0"
      attr {
        key: "T"
        value {
          type: DT_INT32
        }
      }
    }
    node_def {
      name: "CORE_VARS_N_VARS/AssertGuard/Switch"
      op: "Switch"
      input: "Equal:z:0"
      input: "Equal:z:0"
      device: "/job:worker/task:0"
      attr {
        key: "T"
        value {
          type: DT_BOOL
        }
      }
    }
    node_def {
      name: "CORE_VARS_N_VARS/AssertGuard/switch_t"
      op: "Identity"
      input: "CORE_VARS_N_VARS/AssertGuard/Switch:output_true:0"
      device: "/job:worker/task:0"
      attr {
        key: "T"
        value {
          type: DT_BOOL
        }
      }
    }
    node_def {
      name: "CORE_VARS_N_VARS/AssertGuard/switch_f"
      op: "Identity"
      input: "CORE_VARS_N_VARS/AssertGuard/Switch:output_false:0"
      device: "/job:worker/task:0"
      attr {
        key: "T"
        value {
          type: DT_BOOL
        }
      }
    }
    node_def {
      name: "CORE_VARS_N_VARS/AssertGuard/pred_id"
      op: "Identity"
      input: "Equal:z:0"
      device: "/job:worker/task:0"
      attr {
        key: "T"
        value {
          type: DT_BOOL
        }
      }
    }
    node_def {
      name: "CORE_VARS_N_VARS/AssertGuard/NoOp"
      op: "NoOp"
      input: "^CORE_VARS_N_VARS/AssertGuard/switch_t"
      device: "/job:worker/task:0"
    }
    node_def {
      name: "CORE_VARS_N_VARS/AssertGuard/control_dependency"
      op: "Identity"
      input: "CORE_VARS_N_VARS/AssertGuard/switch_t:output:0"
      input: "^CORE_VARS_N_VARS/AssertGuard/NoOp"
      device: "/job:worker/task:0"
      attr {
        key: "T"
        value {
          type: DT_BOOL
        }
      }
      attr {
        key: "_class"
        value {
          list {
            s: "loc:@CORE_VARS_N_VARS/AssertGuard/switch_t"
          }
        }
      }
    }
    node_def {
      name: "CORE_VARS_N_VARS/AssertGuard/Assert"
      op: "Assert"
      input: "CORE_VARS_N_VARS/AssertGuard/Assert/Switch:output_false:0"
      input: "CORE_VARS_N_VARS/AssertGuard/Assert/Switch_1:output_false:0"
      device: "/job:worker/task:0"
      attr {
        key: "T"
        value {
          list {
            type: DT_BOOL
          }
        }
      }
      attr {
        key: "summarize"
        value {
          i: 3
        }
      }
    }
    node_def {
      name: "CORE_VARS_N_VARS/AssertGuard/Assert/Switch"
      op: "Switch"
      input: "Equal:z:0"
      input: "CORE_VARS_N_VARS/AssertGuard/pred_id:output:0"
      device: "/job:worker/task:0"
      attr {
        key: "T"
        value {
          type: DT_BOOL
        }
      }
      attr {
        key: "_class"
        value {
          list {
            s: "loc:@Equal"
          }
        }
      }
    }
    node_def {
      name: "CORE_VARS_N_VARS/AssertGuard/Assert/Switch_1"
      op: "Switch"
      input: "Cast:y:0"
      input: "CORE_VARS_N_VARS/AssertGuard/pred_id:output:0"
      device: "/job:worker/task:0"
      attr {
        key: "T"
        value {
          type: DT_BOOL
        }
      }
      attr {
        key: "_class"
        value {
          list {
            s: "loc:@Cast"
          }
        }
      }
    }
    node_def {
      name: "CORE_VARS_N_VARS/AssertGuard/control_dependency_1"
      op: "Identity"
      input: "CORE_VARS_N_VARS/AssertGuard/switch_f:output:0"
      input: "^CORE_VARS_N_VARS/AssertGuard/Assert"
      device: "/job:worker/task:0"
      attr {
        key: "T"
        value {
          type: DT_BOOL
        }
      }
      attr {
        key: "_class"
        value {
          list {
            s: "loc:@CORE_VARS_N_VARS/AssertGuard/switch_f"
          }
        }
      }
    }
    node_def {
      name: "CORE_VARS_N_VARS/AssertGuard/Merge"
      op: "Merge"
      input: "CORE_VARS_N_VARS/AssertGuard/control_dependency_1:output:0"
      input: "CORE_VARS_N_VARS/AssertGuard/control_dependency:output:0"
      device: "/job:worker/task:0"
      attr {
        key: "N"
        value {
          i: 2
        }
      }
      attr {
        key: "T"
        value {
          type: DT_BOOL
        }
      }
    }
    node_def {
      name: "Const"
      op: "Const"
      device: "/job:worker/task:0"
      attr {
        key: "dtype"
        value {
          type: DT_INT32
        }
      }
      attr {
        key: "value"
        value {
          tensor {
            dtype: DT_INT32
            tensor_shape {
              dim {
                size: 1
              }
            }
            int_val: 0
          }
        }
      }
    }
    node_def {
      name: "Any"
      op: "Any"
      input: "Cast:y:0"
      input: "Const:output:0"
      device: "/job:worker/task:0"
      attr {
        key: "Tidx"
        value {
          type: DT_INT32
        }
      }
      attr {
        key: "keep_dims"
        value {
          b: false
        }
      }
    }
    node_def {
      name: "CORE_VARS_EXIST/AssertGuard/Switch"
      op: "Switch"
      input: "Any:output:0"
      input: "Any:output:0"
      device: "/job:worker/task:0"
      attr {
        key: "T"
        value {
          type: DT_BOOL
        }
      }
    }
    node_def {
      name: "CORE_VARS_EXIST/AssertGuard/switch_t"
      op: "Identity"
      input: "CORE_VARS_EXIST/AssertGuard/Switch:output_true:0"
      device: "/job:worker/task:0"
      attr {
        key: "T"
        value {
          type: DT_BOOL
        }
      }
    }
    node_def {
      name: "CORE_VARS_EXIST/AssertGuard/switch_f"
      op: "Identity"
      input: "CORE_VARS_EXIST/AssertGuard/Switch:output_false:0"
      device: "/job:worker/task:0"
      attr {
        key: "T"
        value {
          type: DT_BOOL
        }
      }
    }
    node_def {
      name: "CORE_VARS_EXIST/AssertGuard/pred_id"
      op: "Identity"
      input: "Any:output:0"
      device: "/job:worker/task:0"
      attr {
        key: "T"
        value {
          type: DT_BOOL
        }
      }
    }
    node_def {
      name: "CORE_VARS_EXIST/AssertGuard/NoOp"
      op: "NoOp"
      input: "^CORE_VARS_EXIST/AssertGuard/switch_t"
      device: "/job:worker/task:0"
    }
    node_def {
      name: "CORE_VARS_EXIST/AssertGuard/control_dependency"
      op: "Identity"
      input: "CORE_VARS_EXIST/AssertGuard/switch_t:output:0"
      input: "^CORE_VARS_EXIST/AssertGuard/NoOp"
      device: "/job:worker/task:0"
      attr {
        key: "T"
        value {
          type: DT_BOOL
        }
      }
      attr {
        key: "_class"
        value {
          list {
            s: "loc:@CORE_VARS_EXIST/AssertGuard/switch_t"
          }
        }
      }
    }
    node_def {
      name: "CORE_VARS_EXIST/AssertGuard/Assert"
      op: "Assert"
      input: "CORE_VARS_EXIST/AssertGuard/Assert/Switch:output_false:0"
      input: "CORE_VARS_EXIST/AssertGuard/Assert/Switch_1:output_false:0"
      device: "/job:worker/task:0"
      attr {
        key: "T"
        value {
          list {
            type: DT_BOOL
          }
        }
      }
      attr {
        key: "summarize"
        value {
          i: 3
        }
      }
    }
    node_def {
      name: "CORE_VARS_EXIST/AssertGuard/Assert/Switch"
      op: "Switch"
      input: "Any:output:0"
      input: "CORE_VARS_EXIST/AssertGuard/pred_id:output:0"
      device: "/job:worker/task:0"
      attr {
        key: "T"
        value {
          type: DT_BOOL
        }
      }
      attr {
        key: "_class"
        value {
          list {
            s: "loc:@Any"
          }
        }
      }
    }
    node_def {
      name: "CORE_VARS_EXIST/AssertGuard/Assert/Switch_1"
      op: "Switch"
      input: "Cast:y:0"
      input: "CORE_VARS_EXIST/AssertGuard/pred_id:output:0"
      device: "/job:worker/task:0"
      attr {
        key: "T"
        value {
          type: DT_BOOL
        }
      }
      attr {
        key: "_class"
        value {
          list {
            s: "loc:@Cast"
          }
        }
      }
    }
    node_def {
      name: "CORE_VARS_EXIST/AssertGuard/control_dependency_1"
      op: "Identity"
      input: "CORE_VARS_EXIST/AssertGuard/switch_f:output:0"
      input: "^CORE_VARS_EXIST/AssertGuard/Assert"
      device: "/job:worker/task:0"
      attr {
        key: "T"
        value {
          type: DT_BOOL
        }
      }
      attr {
        key: "_class"
        value {
          list {
            s: "loc:@CORE_VARS_EXIST/AssertGuard/switch_f"
          }
        }
      }
    }
    node_def {
      name: "CORE_VARS_EXIST/AssertGuard/Merge"
      op: "Merge"
      input: "CORE_VARS_EXIST/AssertGuard/control_dependency_1:output:0"
      input: "CORE_VARS_EXIST/AssertGuard/control_dependency:output:0"
      device: "/job:worker/task:0"
      attr {
        key: "N"
        value {
          i: 2
        }
      }
      attr {
        key: "T"
        value {
          type: DT_BOOL
        }
      }
    }
    node_def {
      name: "Size_1"
      op: "Size"
      input: "Cast_1:y:0"
      device: "/job:worker/task:0"
      attr {
        key: "T"
        value {
          type: DT_BOOL
        }
      }
      attr {
        key: "out_type"
        value {
          type: DT_INT32
        }
      }
    }
    node_def {
      name: "Cast_3"
      op: "Cast"
      input: "ParseSingleExample/ParseSingleExample:dense_values:6"
      device: "/job:worker/task:0"
      attr {
        key: "DstT"
        value {
          type: DT_INT32
        }
      }
      attr {
        key: "SrcT"
        value {
          type: DT_INT64
        }
      }
      attr {
        key: "Truncate"
        value {
          b: false
        }
      }
    }
    node_def {
      name: "Equal_1"
      op: "Equal"
      input: "Size_1:output:0"
      input: "Cast_3:y:0"
      device: "/job:worker/task:0"
      attr {
        key: "T"
        value {
          type: DT_INT32
        }
      }
    }
    node_def {
      name: "CORE_CLAUSES_N_CLAUSES/AssertGuard/Switch"
      op: "Switch"
      input: "Equal_1:z:0"
      input: "Equal_1:z:0"
      device: "/job:worker/task:0"
      attr {
        key: "T"
        value {
          type: DT_BOOL
        }
      }
    }
    node_def {
      name: "CORE_CLAUSES_N_CLAUSES/AssertGuard/switch_t"
      op: "Identity"
      input: "CORE_CLAUSES_N_CLAUSES/AssertGuard/Switch:output_true:0"
      device: "/job:worker/task:0"
      attr {
        key: "T"
        value {
          type: DT_BOOL
        }
      }
    }
    node_def {
      name: "CORE_CLAUSES_N_CLAUSES/AssertGuard/switch_f"
      op: "Identity"
      input: "CORE_CLAUSES_N_CLAUSES/AssertGuard/Switch:output_false:0"
      device: "/job:worker/task:0"
      attr {
        key: "T"
        value {
          type: DT_BOOL
        }
      }
    }
    node_def {
      name: "CORE_CLAUSES_N_CLAUSES/AssertGuard/pred_id"
      op: "Identity"
      input: "Equal_1:z:0"
      device: "/job:worker/task:0"
      attr {
        key: "T"
        value {
          type: DT_BOOL
        }
      }
    }
    node_def {
      name: "CORE_CLAUSES_N_CLAUSES/AssertGuard/NoOp"
      op: "NoOp"
      input: "^CORE_CLAUSES_N_CLAUSES/AssertGuard/switch_t"
      device: "/job:worker/task:0"
    }
    node_def {
      name: "CORE_CLAUSES_N_CLAUSES/AssertGuard/control_dependency"
      op: "Identity"
      input: "CORE_CLAUSES_N_CLAUSES/AssertGuard/switch_t:output:0"
      input: "^CORE_CLAUSES_N_CLAUSES/AssertGuard/NoOp"
      device: "/job:worker/task:0"
      attr {
        key: "T"
        value {
          type: DT_BOOL
        }
      }
      attr {
        key: "_class"
        value {
          list {
            s: "loc:@CORE_CLAUSES_N_CLAUSES/AssertGuard/switch_t"
          }
        }
      }
    }
    node_def {
      name: "CORE_CLAUSES_N_CLAUSES/AssertGuard/Assert"
      op: "Assert"
      input: "CORE_CLAUSES_N_CLAUSES/AssertGuard/Assert/Switch:output_false:0"
      input: "CORE_CLAUSES_N_CLAUSES/AssertGuard/Assert/Switch_1:output_false:0"
      device: "/job:worker/task:0"
      attr {
        key: "T"
        value {
          list {
            type: DT_BOOL
          }
        }
      }
      attr {
        key: "summarize"
        value {
          i: 3
        }
      }
    }
    node_def {
      name: "CORE_CLAUSES_N_CLAUSES/AssertGuard/Assert/Switch"
      op: "Switch"
      input: "Equal_1:z:0"
      input: "CORE_CLAUSES_N_CLAUSES/AssertGuard/pred_id:output:0"
      device: "/job:worker/task:0"
      attr {
        key: "T"
        value {
          type: DT_BOOL
        }
      }
      attr {
        key: "_class"
        value {
          list {
            s: "loc:@Equal_1"
          }
        }
      }
    }
    node_def {
      name: "CORE_CLAUSES_N_CLAUSES/AssertGuard/Assert/Switch_1"
      op: "Switch"
      input: "Cast_1:y:0"
      input: "CORE_CLAUSES_N_CLAUSES/AssertGuard/pred_id:output:0"
      device: "/job:worker/task:0"
      attr {
        key: "T"
        value {
          type: DT_BOOL
        }
      }
      attr {
        key: "_class"
        value {
          list {
            s: "loc:@Cast_1"
          }
        }
      }
    }
    node_def {
      name: "CORE_CLAUSES_N_CLAUSES/AssertGuard/control_dependency_1"
      op: "Identity"
      input: "CORE_CLAUSES_N_CLAUSES/AssertGuard/switch_f:output:0"
      input: "^CORE_CLAUSES_N_CLAUSES/AssertGuard/Assert"
      device: "/job:worker/task:0"
      attr {
        key: "T"
        value {
          type: DT_BOOL
        }
      }
      attr {
        key: "_class"
        value {
          list {
            s: "loc:@CORE_CLAUSES_N_CLAUSES/AssertGuard/switch_f"
          }
        }
      }
    }
    node_def {
      name: "CORE_CLAUSES_N_CLAUSES/AssertGuard/Merge"
      op: "Merge"
      input: "CORE_CLAUSES_N_CLAUSES/AssertGuard/control_dependency_1:output:0"
      input: "CORE_CLAUSES_N_CLAUSES/AssertGuard/control_dependency:output:0"
      device: "/job:worker/task:0"
      attr {
        key: "N"
        value {
          i: 2
        }
      }
      attr {
        key: "T"
        value {
          type: DT_BOOL
        }
      }
    }
    node_def {
      name: "Const_1"
      op: "Const"
      device: "/job:worker/task:0"
      attr {
        key: "dtype"
        value {
          type: DT_INT32
        }
      }
      attr {
        key: "value"
        value {
          tensor {
            dtype: DT_INT32
            tensor_shape {
              dim {
                size: 1
              }
            }
            int_val: 0
          }
        }
      }
    }
    node_def {
      name: "Any_1"
      op: "Any"
      input: "Cast_1:y:0"
      input: "Const_1:output:0"
      device: "/job:worker/task:0"
      attr {
        key: "Tidx"
        value {
          type: DT_INT32
        }
      }
      attr {
        key: "keep_dims"
        value {
          b: false
        }
      }
    }
    node_def {
      name: "CORE_CLAUSES_EXIST/AssertGuard/Switch"
      op: "Switch"
      input: "Any_1:output:0"
      input: "Any_1:output:0"
      device: "/job:worker/task:0"
      attr {
        key: "T"
        value {
          type: DT_BOOL
        }
      }
    }
    node_def {
      name: "CORE_CLAUSES_EXIST/AssertGuard/switch_t"
      op: "Identity"
      input: "CORE_CLAUSES_EXIST/AssertGuard/Switch:output_true:0"
      device: "/job:worker/task:0"
      attr {
        key: "T"
        value {
          type: DT_BOOL
        }
      }
    }
    node_def {
      name: "CORE_CLAUSES_EXIST/AssertGuard/switch_f"
      op: "Identity"
      input: "CORE_CLAUSES_EXIST/AssertGuard/Switch:output_false:0"
      device: "/job:worker/task:0"
      attr {
        key: "T"
        value {
          type: DT_BOOL
        }
      }
    }
    node_def {
      name: "CORE_CLAUSES_EXIST/AssertGuard/pred_id"
      op: "Identity"
      input: "Any_1:output:0"
      device: "/job:worker/task:0"
      attr {
        key: "T"
        value {
          type: DT_BOOL
        }
      }
    }
    node_def {
      name: "CORE_CLAUSES_EXIST/AssertGuard/NoOp"
      op: "NoOp"
      input: "^CORE_CLAUSES_EXIST/AssertGuard/switch_t"
      device: "/job:worker/task:0"
    }
    node_def {
      name: "CORE_CLAUSES_EXIST/AssertGuard/control_dependency"
      op: "Identity"
      input: "CORE_CLAUSES_EXIST/AssertGuard/switch_t:output:0"
      input: "^CORE_CLAUSES_EXIST/AssertGuard/NoOp"
      device: "/job:worker/task:0"
      attr {
        key: "T"
        value {
          type: DT_BOOL
        }
      }
      attr {
        key: "_class"
        value {
          list {
            s: "loc:@CORE_CLAUSES_EXIST/AssertGuard/switch_t"
          }
        }
      }
    }
    node_def {
      name: "CORE_CLAUSES_EXIST/AssertGuard/Assert"
      op: "Assert"
      input: "CORE_CLAUSES_EXIST/AssertGuard/Assert/Switch:output_false:0"
      input: "CORE_CLAUSES_EXIST/AssertGuard/Assert/Switch_1:output_false:0"
      device: "/job:worker/task:0"
      attr {
        key: "T"
        value {
          list {
            type: DT_BOOL
          }
        }
      }
      attr {
        key: "summarize"
        value {
          i: 3
        }
      }
    }
    node_def {
      name: "CORE_CLAUSES_EXIST/AssertGuard/Assert/Switch"
      op: "Switch"
      input: "Any_1:output:0"
      input: "CORE_CLAUSES_EXIST/AssertGuard/pred_id:output:0"
      device: "/job:worker/task:0"
      attr {
        key: "T"
        value {
          type: DT_BOOL
        }
      }
      attr {
        key: "_class"
        value {
          list {
            s: "loc:@Any_1"
          }
        }
      }
    }
    node_def {
      name: "CORE_CLAUSES_EXIST/AssertGuard/Assert/Switch_1"
      op: "Switch"
      input: "Cast_1:y:0"
      input: "CORE_CLAUSES_EXIST/AssertGuard/pred_id:output:0"
      device: "/job:worker/task:0"
      attr {
        key: "T"
        value {
          type: DT_BOOL
        }
      }
      attr {
        key: "_class"
        value {
          list {
            s: "loc:@Cast_1"
          }
        }
      }
    }
    node_def {
      name: "CORE_CLAUSES_EXIST/AssertGuard/control_dependency_1"
      op: "Identity"
      input: "CORE_CLAUSES_EXIST/AssertGuard/switch_f:output:0"
      input: "^CORE_CLAUSES_EXIST/AssertGuard/Assert"
      device: "/job:worker/task:0"
      attr {
        key: "T"
        value {
          type: DT_BOOL
        }
      }
      attr {
        key: "_class"
        value {
          list {
            s: "loc:@CORE_CLAUSES_EXIST/AssertGuard/switch_f"
          }
        }
      }
    }
    node_def {
      name: "CORE_CLAUSES_EXIST/AssertGuard/Merge"
      op: "Merge"
      input: "CORE_CLAUSES_EXIST/AssertGuard/control_dependency_1:output:0"
      input: "CORE_CLAUSES_EXIST/AssertGuard/control_dependency:output:0"
      device: "/job:worker/task:0"
      attr {
        key: "N"
        value {
          i: 2
        }
      }
      attr {
        key: "T"
        value {
          type: DT_BOOL
        }
      }
    }
    node_def {
      name: "Cast_4"
      op: "Cast"
      input: "ParseSingleExample/ParseSingleExample:dense_values:4"
      input: "^ASSERT_n_vars_pos/AssertGuard/Merge"
      input: "^ASSERT_n_clauses_pos/AssertGuard/Merge"
      input: "^CORE_VARS_N_VARS/AssertGuard/Merge"
      input: "^CORE_VARS_EXIST/AssertGuard/Merge"
      input: "^CORE_CLAUSES_N_CLAUSES/AssertGuard/Merge"
      input: "^CORE_CLAUSES_EXIST/AssertGuard/Merge"
      device: "/job:worker/task:0"
      attr {
        key: "DstT"
        value {
          type: DT_BOOL
        }
      }
      attr {
        key: "SrcT"
        value {
          type: DT_INT64
        }
      }
      attr {
        key: "Truncate"
        value {
          b: false
        }
      }
    }
    ret {
      key: "cast"
      value: "Cast:y:0"
    }
    ret {
      key: "cast_1"
      value: "Cast_1:y:0"
    }
    ret {
      key: "cast_4"
      value: "Cast_4:y:0"
    }
    ret {
      key: "parsesingleexample_parsesingleexample"
      value: "ParseSingleExample/ParseSingleExample:dense_values:3"
    }
    ret {
      key: "parsesingleexample_parsesingleexample_0"
      value: "ParseSingleExample/ParseSingleExample:dense_values:7"
    }
    ret {
      key: "parsesingleexample_parsesingleexample_1"
      value: "ParseSingleExample/ParseSingleExample:dense_values:6"
    }
    ret {
      key: "reshape"
      value: "Reshape:output:0"
    }
  }
  function {
    signature {
      name: "Dataset_filter_<lambda>_519"
      input_arg {
        name: "arg0"
        type: DT_INT64
      }
      input_arg {
        name: "arg1"
        type: DT_BOOL
      }
      input_arg {
        name: "arg2"
        type: DT_INT64
      }
      input_arg {
        name: "arg3"
        type: DT_INT64
      }
      input_arg {
        name: "arg4"
        type: DT_INT32
      }
      input_arg {
        name: "arg5"
        type: DT_BOOL
      }
      input_arg {
        name: "arg6"
        type: DT_BOOL
      }
      output_arg {
        name: "less"
        type: DT_BOOL
      }
      description: "Wrapper for passing nested structures to and from tf.data functions."
    }
    node_def {
      name: "mul/x"
      op: "Const"
      device: "/job:worker/task:0"
      attr {
        key: "dtype"
        value {
          type: DT_INT64
        }
      }
      attr {
        key: "value"
        value {
          tensor {
            dtype: DT_INT64
            tensor_shape {
            }
            int64_val: 2
          }
        }
      }
    }
    node_def {
      name: "mul"
      op: "Mul"
      input: "mul/x:output:0"
      input: "arg2"
      device: "/job:worker/task:0"
      attr {
        key: "T"
        value {
          type: DT_INT64
        }
      }
    }
    node_def {
      name: "add"
      op: "Add"
      input: "mul:z:0"
      input: "arg3"
      device: "/job:worker/task:0"
      attr {
        key: "T"
        value {
          type: DT_INT64
        }
      }
    }
    node_def {
      name: "Less/y"
      op: "Const"
      device: "/job:worker/task:0"
      attr {
        key: "dtype"
        value {
          type: DT_INT64
        }
      }
      attr {
        key: "value"
        value {
          tensor {
            dtype: DT_INT64
            tensor_shape {
            }
            int64_val: 300000
          }
        }
      }
    }
    node_def {
      name: "Less"
      op: "Less"
      input: "add:z:0"
      input: "Less/y:output:0"
      device: "/job:worker/task:0"
      attr {
        key: "T"
        value {
          type: DT_INT64
        }
      }
    }
    ret {
      key: "less"
      value: "Less:z:0"
    }
  }
  function {
    signature {
      name: "_make_dataset_dKEBrjaAkcw"
      output_arg {
        name: "modeldataset"
        type: DT_VARIANT
      }
      description: "Factory function for a dataset."
      is_stateful: true
    }
    node_def {
      name: "optimizations"
      op: "Const"
      device: "/job:worker/task:0"
      attr {
        key: "dtype"
        value {
          type: DT_STRING
        }
      }
      attr {
        key: "value"
        value {
          tensor {
            dtype: DT_STRING
            tensor_shape {
              dim {
                size: 3
              }
            }
            string_val: "map_and_batch_fusion"
            string_val: "noop_elimination"
            string_val: "shuffle_and_repeat_fusion"
          }
        }
      }
    }
    node_def {
      name: "OptimizeDataset/start"
      op: "Const"
      device: "/job:worker/task:0"
      attr {
        key: "dtype"
        value {
          type: DT_INT64
        }
      }
      attr {
        key: "value"
        value {
          tensor {
            dtype: DT_INT64
            tensor_shape {
            }
            int64_val: 0
          }
        }
      }
    }
    node_def {
      name: "OptimizeDataset/stop"
      op: "Const"
      device: "/job:worker/task:0"
      attr {
        key: "dtype"
        value {
          type: DT_INT64
        }
      }
      attr {
        key: "value"
        value {
          tensor {
            dtype: DT_INT64
            tensor_shape {
            }
            int64_val: 9223372036854775807
          }
        }
      }
    }
    node_def {
      name: "OptimizeDataset/step"
      op: "Const"
      device: "/job:worker/task:0"
      attr {
        key: "dtype"
        value {
          type: DT_INT64
        }
      }
      attr {
        key: "value"
        value {
          tensor {
            dtype: DT_INT64
            tensor_shape {
            }
            int64_val: 1
          }
        }
      }
    }
    node_def {
      name: "OptimizeDataset/RangeDataset"
      op: "RangeDataset"
      input: "OptimizeDataset/start:output:0"
      input: "OptimizeDataset/stop:output:0"
      input: "OptimizeDataset/step:output:0"
      device: "/job:worker/task:0"
      attr {
        key: "output_shapes"
        value {
          list {
            shape {
            }
          }
        }
      }
      attr {
        key: "output_types"
        value {
          list {
            type: DT_INT64
          }
        }
      }
    }
    node_def {
      name: "OptimizeDataset/Const"
      op: "Const"
      device: "/job:worker/task:0"
      attr {
        key: "dtype"
        value {
          type: DT_STRING
        }
      }
      attr {
        key: "value"
        value {
          tensor {
            dtype: DT_STRING
            tensor_shape {
              dim {
                size: 7
              }
            }
            string_val: "/home/dselsam/v2data/gd/id17/tfrs/file0_b4268181-b819-4be4-be64-b6cb74a8040a.tfr"
            string_val: "/home/dselsam/v2data/gd/id17/tfrs/file32_590d3596-b22b-4376-958a-61579b79a3bf.tfr"
            string_val: "/home/dselsam/v2data/gd/id17/tfrs/file14_58769cbb-a904-4cf4-b869-91eb9900cfc3.tfr"
            string_val: "/home/dselsam/v2data/gd/id17/tfrs/file28_312652ca-ba84-46d4-a04d-c34ea1541d3c.tfr"
            string_val: "/home/dselsam/v2data/gd/id17/tfrs/file6_19100aba-126f-43b0-8395-38683c6c66e0.tfr"
            string_val: "/home/dselsam/v2data/gd/id17/tfrs/file23_8eacf2a2-7098-4b7f-8041-71823b31f9a3.tfr"
            string_val: "/home/dselsam/v2data/gd/id17/tfrs/file19_ae4b3e3c-59a8-4df5-9972-f8bb397902cb.tfr"
          }
        }
      }
    }
    node_def {
      name: "OptimizeDataset/flat_filenames/shape"
      op: "Const"
      device: "/job:worker/task:0"
      attr {
        key: "dtype"
        value {
          type: DT_INT32
        }
      }
      attr {
        key: "value"
        value {
          tensor {
            dtype: DT_INT32
            tensor_shape {
              dim {
                size: 1
              }
            }
            int_val: -1
          }
        }
      }
    }
    node_def {
      name: "OptimizeDataset/flat_filenames"
      op: "Reshape"
      input: "OptimizeDataset/Const:output:0"
      input: "OptimizeDataset/flat_filenames/shape:output:0"
      device: "/job:worker/task:0"
      attr {
        key: "T"
        value {
          type: DT_STRING
        }
      }
      attr {
        key: "Tshape"
        value {
          type: DT_INT32
        }
      }
    }
    node_def {
      name: "OptimizeDataset/TensorSliceDataset"
      op: "TensorSliceDataset"
      input: "OptimizeDataset/flat_filenames:output:0"
      device: "/job:worker/task:0"
      attr {
        key: "Toutput_types"
        value {
          list {
            type: DT_STRING
          }
        }
      }
      attr {
        key: "output_shapes"
        value {
          list {
            shape {
            }
          }
        }
      }
    }
    node_def {
      name: "OptimizeDataset/cycle_length"
      op: "Const"
      device: "/job:worker/task:0"
      attr {
        key: "dtype"
        value {
          type: DT_INT64
        }
      }
      attr {
        key: "value"
        value {
          tensor {
            dtype: DT_INT64
            tensor_shape {
            }
            int64_val: 1
          }
        }
      }
    }
    node_def {
      name: "OptimizeDataset/block_length"
      op: "Const"
      device: "/job:worker/task:0"
      attr {
        key: "dtype"
        value {
          type: DT_INT64
        }
      }
      attr {
        key: "value"
        value {
          tensor {
            dtype: DT_INT64
            tensor_shape {
            }
            int64_val: 1
          }
        }
      }
    }
    node_def {
      name: "OptimizeDataset/sloppy"
      op: "Const"
      device: "/job:worker/task:0"
      attr {
        key: "dtype"
        value {
          type: DT_BOOL
        }
      }
      attr {
        key: "value"
        value {
          tensor {
            dtype: DT_BOOL
            tensor_shape {
            }
            bool_val: false
          }
        }
      }
    }
    node_def {
      name: "OptimizeDataset/buffer_output_elements"
      op: "Const"
      device: "/job:worker/task:0"
      attr {
        key: "dtype"
        value {
          type: DT_INT64
        }
      }
      attr {
        key: "value"
        value {
          tensor {
            dtype: DT_INT64
            tensor_shape {
            }
            int64_val: 2
          }
        }
      }
    }
    node_def {
      name: "OptimizeDataset/prefetch_input_elements"
      op: "Const"
      device: "/job:worker/task:0"
      attr {
        key: "dtype"
        value {
          type: DT_INT64
        }
      }
      attr {
        key: "value"
        value {
          tensor {
            dtype: DT_INT64
            tensor_shape {
            }
            int64_val: 2
          }
        }
      }
    }
    node_def {
      name: "OptimizeDataset/ExperimentalParallelInterleaveDataset"
      op: "ExperimentalParallelInterleaveDataset"
      input: "OptimizeDataset/TensorSliceDataset:handle:0"
      input: "OptimizeDataset/cycle_length:output:0"
      input: "OptimizeDataset/block_length:output:0"
      input: "OptimizeDataset/sloppy:output:0"
      input: "OptimizeDataset/buffer_output_elements:output:0"
      input: "OptimizeDataset/prefetch_input_elements:output:0"
      device: "/job:worker/task:0"
      attr {
        key: "Targuments"
        value {
          list {
          }
        }
      }
      attr {
        key: "f"
        value {
          func {
            name: "tf_data_experimental_parallel_interleave_read_one_file_357"
          }
        }
      }
      attr {
        key: "output_shapes"
        value {
          list {
            shape {
            }
          }
        }
      }
      attr {
        key: "output_types"
        value {
          list {
            type: DT_STRING
          }
        }
      }
    }
    node_def {
      name: "OptimizeDataset/ZipDataset"
      op: "ZipDataset"
      input: "OptimizeDataset/RangeDataset:handle:0"
      input: "OptimizeDataset/ExperimentalParallelInterleaveDataset:handle:0"
      device: "/job:worker/task:0"
      attr {
        key: "N"
        value {
          i: 2
        }
      }
      attr {
        key: "output_shapes"
        value {
          list {
            shape {
            }
            shape {
            }
          }
        }
      }
      attr {
        key: "output_types"
        value {
          list {
            type: DT_INT64
            type: DT_STRING
          }
        }
      }
    }
    node_def {
      name: "OptimizeDataset/num_shards"
      op: "Const"
      device: "/job:worker/task:0"
      attr {
        key: "dtype"
        value {
          type: DT_INT64
        }
      }
      attr {
        key: "value"
        value {
          tensor {
            dtype: DT_INT64
            tensor_shape {
            }
            int64_val: 4
          }
        }
      }
    }
    node_def {
      name: "OptimizeDataset/shard_index"
      op: "Const"
      device: "/job:worker/task:0"
      attr {
        key: "dtype"
        value {
          type: DT_INT64
        }
      }
      attr {
        key: "value"
        value {
          tensor {
            dtype: DT_INT64
            tensor_shape {
            }
            int64_val: 0
          }
        }
      }
    }
    node_def {
      name: "OptimizeDataset/FilterDataset"
      op: "FilterDataset"
      input: "OptimizeDataset/ZipDataset:handle:0"
      input: "OptimizeDataset/num_shards:output:0"
      input: "OptimizeDataset/shard_index:output:0"
      device: "/job:worker/task:0"
      attr {
        key: "Targuments"
        value {
          list {
            type: DT_INT64
            type: DT_INT64
          }
        }
      }
      attr {
        key: "output_shapes"
        value {
          list {
            shape {
            }
            shape {
            }
          }
        }
      }
      attr {
        key: "output_types"
        value {
          list {
            type: DT_INT64
            type: DT_STRING
          }
        }
      }
      attr {
        key: "predicate"
        value {
          func {
            name: "Dataset_filter_filter_fn_376"
          }
        }
      }
    }
    node_def {
      name: "OptimizeDataset/MapDataset"
      op: "MapDataset"
      input: "OptimizeDataset/FilterDataset:handle:0"
      device: "/job:worker/task:0"
      attr {
        key: "Targuments"
        value {
          list {
          }
        }
      }
      attr {
        key: "f"
        value {
          func {
            name: "Dataset_map_<lambda>_385"
          }
        }
      }
      attr {
        key: "output_shapes"
        value {
          list {
            shape {
            }
          }
        }
      }
      attr {
        key: "output_types"
        value {
          list {
            type: DT_STRING
          }
        }
      }
      attr {
        key: "preserve_cardinality"
        value {
          b: false
        }
      }
      attr {
        key: "use_inter_op_parallelism"
        value {
          b: true
        }
      }
    }
    node_def {
      name: "OptimizeDataset/num_parallel_calls"
      op: "Const"
      device: "/job:worker/task:0"
      attr {
        key: "dtype"
        value {
          type: DT_INT32
        }
      }
      attr {
        key: "value"
        value {
          tensor {
            dtype: DT_INT32
            tensor_shape {
            }
            int_val: 5
          }
        }
      }
    }
    node_def {
      name: "OptimizeDataset/ParallelMapDataset"
      op: "ParallelMapDataset"
      input: "OptimizeDataset/MapDataset:handle:0"
      input: "OptimizeDataset/num_parallel_calls:output:0"
      device: "/job:worker/task:0"
      attr {
        key: "Targuments"
        value {
          list {
          }
        }
      }
      attr {
        key: "f"
        value {
          func {
            name: "Dataset_map_example_to_tftd_390"
          }
        }
      }
      attr {
        key: "output_shapes"
        value {
          list {
            shape {
            }
            shape {
            }
            shape {
            }
            shape {
            }
            shape {
              dim {
                size: -1
              }
              dim {
                size: 2
              }
            }
            shape {
              dim {
                size: -1
              }
            }
            shape {
              dim {
                size: -1
              }
            }
          }
        }
      }
      attr {
        key: "output_types"
        value {
          list {
            type: DT_INT64
            type: DT_BOOL
            type: DT_INT64
            type: DT_INT64
            type: DT_INT32
            type: DT_BOOL
            type: DT_BOOL
          }
        }
      }
      attr {
        key: "preserve_cardinality"
        value {
          b: false
        }
      }
      attr {
        key: "sloppy"
        value {
          b: false
        }
      }
      attr {
        key: "use_inter_op_parallelism"
        value {
          b: true
        }
      }
    }
    node_def {
      name: "OptimizeDataset/FilterDataset_1"
      op: "FilterDataset"
      input: "OptimizeDataset/ParallelMapDataset:handle:0"
      device: "/job:worker/task:0"
      attr {
        key: "Targuments"
        value {
          list {
          }
        }
      }
      attr {
        key: "output_shapes"
        value {
          list {
            shape {
            }
            shape {
            }
            shape {
            }
            shape {
            }
            shape {
              dim {
                size: -1
              }
              dim {
                size: 2
              }
            }
            shape {
              dim {
                size: -1
              }
            }
            shape {
              dim {
                size: -1
              }
            }
          }
        }
      }
      attr {
        key: "output_types"
        value {
          list {
            type: DT_INT64
            type: DT_BOOL
            type: DT_INT64
            type: DT_INT64
            type: DT_INT32
            type: DT_BOOL
            type: DT_BOOL
          }
        }
      }
      attr {
        key: "predicate"
        value {
          func {
            name: "Dataset_filter_<lambda>_519"
          }
        }
      }
    }
    node_def {
      name: "OptimizeDataset/count"
      op: "Const"
      device: "/job:worker/task:0"
      attr {
        key: "dtype"
        value {
          type: DT_INT64
        }
      }
      attr {
        key: "value"
        value {
          tensor {
            dtype: DT_INT64
            tensor_shape {
            }
            int64_val: -1
          }
        }
      }
    }
    node_def {
      name: "OptimizeDataset/RepeatDataset"
      op: "RepeatDataset"
      input: "OptimizeDataset/FilterDataset_1:handle:0"
      input: "OptimizeDataset/count:output:0"
      device: "/job:worker/task:0"
      attr {
        key: "output_shapes"
        value {
          list {
            shape {
            }
            shape {
            }
            shape {
            }
            shape {
            }
            shape {
              dim {
                size: -1
              }
              dim {
                size: 2
              }
            }
            shape {
              dim {
                size: -1
              }
            }
            shape {
              dim {
                size: -1
              }
            }
          }
        }
      }
      attr {
        key: "output_types"
        value {
          list {
            type: DT_INT64
            type: DT_BOOL
            type: DT_INT64
            type: DT_INT64
            type: DT_INT32
            type: DT_BOOL
            type: DT_BOOL
          }
        }
      }
    }
    node_def {
      name: "OptimizeDataset/buffer_size"
      op: "Const"
      device: "/job:worker/task:0"
      attr {
        key: "dtype"
        value {
          type: DT_INT64
        }
      }
      attr {
        key: "value"
        value {
          tensor {
            dtype: DT_INT64
            tensor_shape {
            }
            int64_val: 1
          }
        }
      }
    }
    node_def {
      name: "OptimizeDataset/PrefetchDataset"
      op: "PrefetchDataset"
      input: "OptimizeDataset/RepeatDataset:handle:0"
      input: "OptimizeDataset/buffer_size:output:0"
      device: "/job:worker/task:0"
      attr {
        key: "output_shapes"
        value {
          list {
            shape {
            }
            shape {
            }
            shape {
            }
            shape {
            }
            shape {
              dim {
                size: -1
              }
              dim {
                size: 2
              }
            }
            shape {
              dim {
                size: -1
              }
            }
            shape {
              dim {
                size: -1
              }
            }
          }
        }
      }
      attr {
        key: "output_types"
        value {
          list {
            type: DT_INT64
            type: DT_BOOL
            type: DT_INT64
            type: DT_INT64
            type: DT_INT32
            type: DT_BOOL
            type: DT_BOOL
          }
        }
      }
    }
    node_def {
      name: "OptimizeDataset"
      op: "OptimizeDataset"
      input: "OptimizeDataset/PrefetchDataset:handle:0"
      input: "optimizations:output:0"
      device: "/job:worker/task:0"
      attr {
        key: "output_shapes"
        value {
          list {
            shape {
            }
            shape {
            }
            shape {
            }
            shape {
            }
            shape {
              dim {
                size: -1
              }
              dim {
                size: 2
              }
            }
            shape {
              dim {
                size: -1
              }
            }
            shape {
              dim {
                size: -1
              }
            }
          }
        }
      }
      attr {
        key: "output_types"
        value {
          list {
            type: DT_INT64
            type: DT_BOOL
            type: DT_INT64
            type: DT_INT64
            type: DT_INT32
            type: DT_BOOL
            type: DT_BOOL
          }
        }
      }
    }
    node_def {
      name: "ModelDataset"
      op: "ModelDataset"
      input: "OptimizeDataset:handle:0"
      device: "/job:worker/task:0"
      attr {
        key: "output_shapes"
        value {
          list {
            shape {
            }
            shape {
            }
            shape {
            }
            shape {
            }
            shape {
              dim {
                size: -1
              }
              dim {
                size: 2
              }
            }
            shape {
              dim {
                size: -1
              }
            }
            shape {
              dim {
                size: -1
              }
            }
          }
        }
      }
      attr {
        key: "output_types"
        value {
          list {
            type: DT_INT64
            type: DT_BOOL
            type: DT_INT64
            type: DT_INT64
            type: DT_INT32
            type: DT_BOOL
            type: DT_BOOL
          }
        }
      }
    }
    ret {
      key: "modeldataset"
      value: "ModelDataset:handle:0"
    }
  }
  function {
    signature {
      name: "Dataset_filter_filter_fn_376"
      input_arg {
        name: "arg0"
        type: DT_INT64
      }
      input_arg {
        name: "arg1"
        type: DT_STRING
      }
      input_arg {
        name: "floormod_placeholder"
        type: DT_INT64
      }
      input_arg {
        name: "equal_placeholder"
        type: DT_INT64
      }
      output_arg {
        name: "equal"
        type: DT_BOOL
      }
      description: "Wrapper for passing nested structures to and from tf.data functions."
    }
    node_def {
      name: "FloorMod"
      op: "FloorMod"
      input: "arg0"
      input: "floormod_placeholder"
      device: "/job:worker/task:0"
      attr {
        key: "T"
        value {
          type: DT_INT64
        }
      }
    }
    node_def {
      name: "Equal"
      op: "Equal"
      input: "FloorMod:z:0"
      input: "equal_placeholder"
      device: "/job:worker/task:0"
      attr {
        key: "T"
        value {
          type: DT_INT64
        }
      }
    }
    ret {
      key: "equal"
      value: "Equal:z:0"
    }
  }
}
versions {
  producer: 27
  min_consumer: 12
}
